assets/DDPG.pth (torch_old, 322249 bytes, 11 tensors)

layers.0.weight f4 [256, 24]
00000000: 37f1 fabc 4f6b bc3e 6187 453d 2336 98be
00000010: 37ac e33e 335c 1ebe f7a6 1bbd 051c 0c3d
00000020: c6ed 26be b316 e63d c94e a9bd 9c42 c4bc
00000030: 17e1 353e 9e3f 51be 35ef cfbc b997 69be
00000040: 9190 003e 285c d8b9 66d1 1bbe a799 0cbe
00000050: d79b 983d ca57 8bbd c735 f6bc b37b 213b
00000060: 5563 8f3e 9143 543e d978 fdb9 2703 54bd
00000070: 7e0b e6bd 0574 acbd 2d70 6338 27eb 6fbd
00000080: 2bfa e6bc cdb1 fcbc 3a67 013e d9d1 ecbd
00000090: 210b b7bd 1bc3 26bd 8589 c8bd 3313 89be
000000a0: a002 683d 29a4 473e 6f5f 54be 45c5 a6be
000000b0: 5b43 78bd 1ae7 aa3d 3eda 023e 4122 bbbe
000000c0: 0ddd 3d3c d695 9e3e 5399 a43d 87ce 9e3d
000000d0: b1b9 e23d 0a4d 7e3c eb44 e6bd e31c 39be
000000e0: fd34 793e 80a9 b73d 50e4 1f3e 763c aa3b
000000f0: 421a 903e 7219 523e e5e8 a5bd f916 3f3e
00000100: c7dd b13e f081 9dbd 2e5c 1e3c 1da8 883d
00000110: 03ef c43e 5979 9c3e 56be 93bd c41d 5a3d
00000120: 20bd 66be b22a 133e 2073 29bd 240b a2be
00000130: bf9f 813e 954d 373e 9738 9a3b 7c14 8abe
00000140: 7c85 0dbe 5c1b c93e 5c9c 4e3c ab4b 10be
00000150: 8ac2 14bd b903 ea3d b398 0c3d 25a5 9cbe
00000160: e0c1 903d b799 e63e 088c 7f3c 0b4e 0f3c
00000170: a84f d5bd fff2 9ebe dd71 37bc d089 053e
00000180: cfeb 1e3e 8bc8 e53c 8fef b33c 2fbc 13be
00000190: fc50 803e 2cfe 00be 93dc 31be 0721 05be
000001a0: 1be0 3d3e f042 f9bd 01ec 2d3e 334a b63d
000001b0: 7c31 a3bd 53c8 0fbc 8c3e 04bd db3d ee3d
000001c0: 8821 543e dbf6 733e faf2 173e 3a5c f7bd
000001d0: 778e 08be d46d adbc 1a33 1c3b 1c7b 903d
000001e0: 6368 973b 98c8 1d3e 1115 ccbd 8d68 67be
000001f0: d790 a93e 0f68 5abe fc4f 673d ae26 a4bd
00000200: 3b5a f8bd b4e5 423d 5d20 a63c 7f6e 18be
00000210: 2ece 263e 94be 393d 7cf8 aabd 5588 283e
00000220: 51a2 28be 779f 3cbe d1b8 1dbd eb53 7e3d
00000230: 3dac 36bd 10d7 d23e fdb5 1e3d a66e 10be
00000240: 91f4 7e3e a6a7 a73e f444 d23c bb15 28be
00000250: f78e d2bd 71b8 72bd e1ed 2b3d 2439 093e
00000260: 3146 f83c 35d5 543e c457 44be 4cb3 04be
00000270: 5f09 afbd d25d 713d c43f 523e 1577 fb3d
00000280: 2e2a 173e 5ca7 89bd 09a1 24be 3a81 b1bd
00000290: 0af9 7a3e a334 b13e 5332 0b3e 63f4 45bd
000002a0: 408d c0bd 8332 1fbe 0247 c5bd 6941 dc3d
000002b0: 1042 8e3e bd52 753e 97ec 863d 15b2 c43d
000002c0: 1e7e 203e 45c5 4a3c 9577 67bd 92c0 89bd
000002d0: d0ab a83d 18fb a6bd 20c7 5fbe 2b14 2dbc
000002e0: d2e2 643e db51 cbbd 1314 9b3c d039 cdbd
000002f0: b13b f5bd d43f 0dbe 3acc 20bd b676 b93d
00000300: dfe8 173e 22b1 7bbe f889 7cbd 9dc3 5e3d
00000310: 9839 423d 2674 a4be 88b0 463d 60bf 5bbe
00000320: 28f6 afbd adfc f2be 375d 48bd e4c0 40bd
00000330: 1a9e 97bd e28d d13d 150e 4abd 0340 4e3e
00000340: de53 b53d 7831 e4bd 110c 2abd adca cc3d
00000350: c66b f8bd 40db 743e 034b d83d 1738 9bbd
00000360: 42a0 6fbe 3fa7 65be feb5 e03d 887a 423e
00000370: 8a29 51be b895 203e 0ce1 d03c e30a 6b3d
00000380: fcd7 9bbd c98e 71bb ce95 ffbd 9c9a 8e3d
00000390: 10be 213e 12f6 33be 2135 983d 68da 17be
000003a0: 70fb 35be 8180 f6bc 3db8 073c eaff 47be
000003b0: f2ac bb3d 4ffe eebe c99a 8dbd 583b 29be
000003c0: bd0d 2c3e 653d fcbd 15b6 8fbd ec76 aa3e
000003d0: 87e1 883a d9ce ea3d f727 a23d 58ec af3d
000003e0: c6ff 5cbd a492 313e 89ed 24be aa21 3b3e
000003f0: 0201 1d3e bbca 65be 2f48 383e 6235 c23d
-0.030632598 0.3680062 0.04822481 -0.29728803 0.44467327 -0.15464859 -0.038001027 0.03420641
-0.16301641 0.11234798 -0.0826698 -0.023957543 0.17761646 -0.20434424 -0.025382617 -0.22811784
0.12555148 -0.00041267392 -0.15216598 -0.13730489 0.07451599 -0.06803854 -0.03005494 0.002464038
0.28005472 0.207289 -0.0004834596 -0.05176082 -0.11232661 -0.084205665 5.422549e-05 -0.058573868
-0.028195461 -0.0308465 0.12637034 -0.11563463 -0.089376695 -0.04071341 -0.09791855 -0.2677246
0.05664313 0.19496216 -0.2073953 -0.3257238 -0.06061111 0.083448604 0.12778565 -0.3654957
0.011588347 0.3097369 0.08037057 0.07754236 0.11070574 0.015521297 -0.11243614 -0.18077426
0.2433662 0.089678764 0.15614438 0.005195196 0.28145033 0.20517519 -0.08101062 0.18661107
0.34739515 -0.07690799 0.009665532 0.0667269 0.384636 0.3056133 -0.07214038 0.053251043
-0.22533083 0.14371756 -0.041369557 -0.31649125 0.2531719 0.17900689 0.004706453 -0.26968753
-0.13820451 0.39278686 0.012610521 -0.14091365 -0.03631834 0.11426491 0.034325313 -0.30594745
0.07068229 0.4503915 0.015597351 0.008746634 -0.10415584 -0.31044766 -0.011196581 0.13040853
0.15519641 0.028049728 0.021964816 -0.14427255 0.25061786 -0.12596959 -0.17369299 -0.1300088
0.1854252 -0.121709704 0.1698456 0.08900871 -0.07968423 -0.008775788 -0.03228621 0.11632892
0.20715916 0.23824637 0.14838782 -0.12078138 -0.13335596 -0.021170534 0.002383417 0.07054731
0.004620598 0.15408552 -0.099649556 -0.22598477 0.33118317 -0.21328758 0.056472763 -0.0801519
-0.12126585 0.047582343 0.020279104 -0.14885901 0.16289589 0.045347765 -0.08348176 0.16458257
-0.16468169 -0.18420206 -0.038506333 0.06209175 -0.044597853 0.41179705 0.038747776 -0.14104709
0.24897982 0.32745093 0.025667645 -0.1641454 -0.10281175 -0.05925793 0.041974906 0.13400704
0.030306907 0.20784457 -0.19174105 -0.12959021 -0.08546709 0.058927365 0.20532137 0.122785725
0.14762184 -0.067213744 -0.16077055 -0.08667226 0.24509063 0.3461047 0.13593416 -0.04832877
-0.09401941 -0.15546612 -0.09632684 0.107546635 0.27784777 0.23957343 0.06588095 0.09604279
0.1567311 0.012376134 -0.056510527 -0.06726183 0.08235896 -0.08153361 -0.21853304 -0.01056389
0.2235215 -0.09927722 0.01893047 -0.100207925 -0.11974276 -0.1379388 -0.039257266 0.090558454
0.14834927 -0.2457929 -0.061655015 0.05438577 0.047418207 -0.32119864 0.048508197 -0.21459723
-0.085918725 -0.474584 -0.04891702 -0.047058955 -0.07403202 0.1023214 -0.049329836 0.20141606
0.08853887 -0.11142248 -0.041515414 0.09999595 -0.12129931 0.23911762 0.10561182 -0.07579058
-0.23400977 -0.2242708 0.10972212 0.18992054 -0.20426002 0.15682113 0.025497936 0.05738343
-0.07609555 -0.0036858788 -0.12479745 0.06963083 0.1579516 -0.17574337 0.074320085 -0.14829409
-0.17771697 -0.030090572 0.008283672 -0.19531217 0.09163846 -0.46678397 -0.069142886 -0.16526544
0.16802116 -0.123163976 -0.07017151 0.33293855 0.0010443189 0.11465234 0.07917779 0.08590001
-0.053954862 0.17341095 -0.16106237 0.1827456 0.15332416 -0.22440617 0.17996286 0.09482838

layers.0.bias f4 [256]
00000000: f5f8 9a3d 76bc 4fbe 3239 063d 2c57 313e
00000010: f671 793d d3cd 98bb 9d3d 8a3d e47f 75be
00000020: dfae 0cbe 5acc a8bc 0eb6 5abd ddab d43c
00000030: 1083 c2bd e0af 393e 698a 7a3e aeeb 8abd
00000040: c766 8b3e 3ab2 a5bd a003 6bbe 93b8 753e
00000050: 9d63 9cbe c453 2a3d 9462 9ebd 32a0 b53d
00000060: be0b 1cbd f9f8 453e 1d62 fa3d 319e 52be
00000070: a943 84bc 2ab3 d83d 36ea 31bc b672 e03d
00000080: 8b26 a7bd eb03 95be ebfd 6e3d b3aa 6fbe
00000090: ddd2 9b3d 4789 563e 0cf2 07be cf3e b03e
000000a0: 16c8 67bd aac8 42be 8478 40be 19d8 1cbe
000000b0: 2da7 c73d 5fa4 6b3c 6ada 3dbc 7208 cdbc
000000c0: 7809 a13e 4319 5d3e 4f92 103e a71b d53d
000000d0: 21cd 073d 3435 6bbe 807f 90be a1fd 4dbd
000000e0: 835a 99bc 4fde a7be 573c 0abe 90e7 9ebe
000000f0: fad2 2a3e c99b 38bd 4ce1 d9bd cc7d 82be
00000100: 8735 6e3e d12b dc3d 116f 993e b765 313e
00000110: 9593 ee3d 2270 b3ba 61b9 633e eeaa 6cbd
00000120: 6f29 d3bd 24a4 32bd c2bf 87be a241 23be
00000130: 7b08 a6be 9032 a6be 6cdb 5c3d 7e46 bfbd
00000140: 3794 5abd 64cd 69be 292f 313d 4d45 8c3e
00000150: b06a 603e c999 473e 1d58 cc3c ba6b 403e
00000160: d553 5a3d 899b b03d 9ae4 673e fd27 25be
00000170: 29a1 a8bc 1058 aa3e 666e c33d 8b8c 15bd
00000180: 4c2a fa3c 0b93 9ebe 5cd5 e9bb cc94 ac3d
00000190: fdd8 40be 933e 34be 612a a83d 1e02 d6bd
000001a0: 25c6 593d e1fe 8bbd 68dc 013d 30a5 aa3d
000001b0: a521 883d 4d9a 7b3d 18a6 a2bc 5ab0 c9bc
000001c0: b221 3a3e 4cfb 24be 51a0 913d 02df 16be
000001d0: 63cc ddbd dcef 3bbe 906a 8fbd 7a58 ea3c
000001e0: 381a 303e 8607 663e a255 c43d 6aa6 643c
000001f0: ea93 133e aaad 173e 7a4e 73be 921f a83c
00000200: fdea 643e d15f 19be 4543 bdbe 1e54 a5bb
00000210: 08d0 05be c757 41be b519 61bd 97d8 c4bc
00000220: d125 8ebe 7112 853e e76c 8c3e ce7e c13d
00000230: 170a fd3d 5ae0 1fbe 9501 b63e 0db2 2c3e
00000240: b3d3 4a3e 9f3c c4bd 3279 68be c67f ea3d
00000250: d6c8 aabd cffd 8bbd a3c1 d13c 027d aabd
00000260: c732 ae3e 41b8 063e c993 bbbd ff22 71be
00000270: 3b59 3f3e c282 353e 2399 08be 35ec 74be
00000280: 8ef1 8a3e c744 86be 6097 1c3e c4eb 453e
00000290: 7c21 5e3e 607b 52be 5526 01bd a2e4 35bd
000002a0: bf3e 24be 601c 8d3e 365e e53d 4a44 423e
000002b0: 426c b73c 02dd 1dbe 02f1 7c3d 734e 2bbd
000002c0: e72a 463e 5ecf 38be b8da 03be ba35 aabd
000002d0: 0599 9fbd e31d 09bd 3a2a 213d a4c8 b8bd
000002e0: fd5d 0cbe 8b1e 7b3d f550 00be 4c64 41bd
000002f0: f618 a83d 1052 f53c 01b9 373d f25e 703d
00000300: 7b1c 19be d02b c1bc 7971 a6bd f757 3e3e
00000310: 3d22 9fbd c9e4 8e3b 70dc a1bb 6b10 56bd
00000320: 7864 8abe dc01 a0be d56f 1bbe ff49 9c3d
00000330: 1d5c 38bd 7cf0 ae3e 6b01 a6bd b081 0bbc
00000340: b831 b2bd 7f2a 0bbe 0521 edbd 485a 4f3b
00000350: 26d9 19b9 60d2 1d3e edab c2bc ad73 833e
00000360: 8cc3 83be eb84 8b3e ee9b e1bd 987f 45be
00000370: ffc2 54bd 9e82 e8bc 03c1 dbbc 0a44 f0bc
00000380: d404 1c3b a2e4 293e 9eeb a5be 2dbd 33be
00000390: 0f55 b5bd 278d 4c3e 8313 31bd 6c51 fabd
000003a0: 1870 34be e8e8 ddbc 14d3 80be a8a9 a5bc
000003b0: a31d 7f3e aa1c 23be 6fe8 4e3e c30b 0cbd
000003c0: c118 073e 2cad 6dbd b36e 993d e842 84be
000003d0: a5d1 4b3e 3b42 91be 3df0 a2bd d1e5 0e3e
000003e0: 4b42 78bd 9a34 f33d ea19 86be 8118 0abe
000003f0: 34e3 1b3e 6a0c 19bd 462f d73d 75a3 453e
0.07567016 -0.20286736 0.03276939 0.1731841 0.060899697 -0.004663208 0.06750033 -0.23974568
-0.13738583 -0.020605255 -0.053396277 0.025960857 -0.094976544 0.18133497 0.24466862 -0.067832336
0.2722685 -0.08090635 -0.22950602 0.2399619 -0.3054475 0.04158379 -0.07733646 0.088684455
-0.038097136 0.19333257 0.12225745 -0.20568158 -0.016145544 0.10581048 -0.010859063 0.109593794
-0.08161648 -0.29104552 0.058347624 -0.2340496 0.07608578 0.20950805 -0.13275927 0.3442292
-0.0565873 -0.1902186 -0.18795973 -0.1531681 0.09748683 0.014382451 -0.0115877185 -0.025028441
0.31452537 0.21591668 0.14118312 0.10405665 0.03315461 -0.22969514 -0.28222275 -0.050290707
-0.018719917 -0.32786795 -0.1349958 -0.31036043 0.16682044 -0.045070443 -0.10638675 -0.254866
0.23262607 0.10750545 0.2996755 0.17323957 0.11649243 -0.0013690034 0.22238685 -0.0577802
-0.10310637 -0.043613568 -0.26513487 -0.15943006 -0.32428345 -0.3246045 0.053920195 -0.09339617
-0.053364005 -0.22832257 0.043257866 0.27396622 0.21915698 0.19492258 0.02494436 0.18791094
0.053302605 0.08623416 0.22645798 -0.16128536 -0.02058466 0.3327031 0.09542541 -0.036510985
0.030537747 -0.3097156 -0.00713603 0.08426818 -0.18832774 -0.17601995 0.08211208 -0.104496226
0.05316748 -0.06835724 0.031704336 0.08332288 0.06647042 0.06142645 -0.01985459 -0.024620224
0.18176916 -0.16111487 0.07110656 -0.14733508 -0.10829999 -0.18353218 -0.07002747 0.028606642
0.17197502 0.22463807 0.09586646 0.013955692 0.14411893 0.14812341 -0.23760405 0.020522866
0.22355266 -0.14977957 -0.36965385 -0.005045428 -0.13067639 -0.1888114 -0.054956157 -0.02402906
-0.27763227 0.25990632 0.27426836 0.09448014 0.1235544 -0.15612927 0.35548082 0.16864796
0.1980732 -0.09581875 -0.22702482 0.11450152 -0.08339088 -0.068355195 0.025605028 -0.083246246
0.34023115 0.13156225 -0.09159047 -0.23548506 0.18686382 0.17725661 -0.13339667 -0.23918231
0.27137417 -0.26224348 0.1529212 0.19328219 0.21692461 -0.20554876 -0.031530697 -0.044407494
-0.1603956 0.2756071 0.1119961 0.18971363 0.022390489 -0.15416339 0.06175328 -0.041822862
0.19352303 -0.18047854 -0.12876403 -0.08311029 -0.07792858 -0.033475768 0.03934691 -0.09022644
-0.13707729 0.061308425 -0.12530883 -0.04721479 0.08207886 0.029946357 0.044854168 0.058684297
-0.1495227 -0.023580462 -0.08127112 0.18588243 -0.07770202 0.0043607694 -0.0049396083 -0.05226175
-0.27029777 -0.3125142 -0.1517938 0.07631301 -0.04500972 0.3416785 -0.08105739 -0.008514807
-0.08700889 -0.1359043 -0.115785636 0.0031639505 -0.00014672111 0.15412283 -0.023763621 0.2567419
-0.25735128 0.27249846 -0.11016069 -0.19286954 -0.051943775 -0.028382596 -0.026825434 -0.029329319
0.0023806589 0.16591123 -0.32406324 -0.17552634 -0.08854114 0.1997572 -0.0432315 -0.12222561
-0.17620885 -0.027088597 -0.2516104 -0.0202225 0.2491365 -0.15928903 0.20205854 -0.034190904
0.13193037 -0.058026478 0.07491817 -0.25832295 0.19904192 -0.28370842 -0.07955978 0.13954856
-0.060610097 0.11875267 -0.26191646 -0.1348591 0.1522339 -0.037365355 0.105070636 0.19300635

layers.2.weight f4 [128, 256]
00000000: 760e e13c e6f2 28be 4aff 2e3d 59f3 823c
00000010: 8a05 23bd c502 703d fd45 783d 2bba 70bd
00000020: 5a0a 133d 8ff2 4c3d b817 05be d1dc e3bd
00000030: 8de7 f9bc ce0a 223d a7ed 3ebe d0b0 173d
00000040: f65b 17bd 5f9b 103d 42bb 833d bdf0 923c
00000050: 3935 46bc 2227 54be cd36 963d 2575 b63c
00000060: bbfb dcbd f5f4 e5bd 10c7 223e cf20 553d
00000070: 78fc 723c f248 adbd fa58 7cbe 34e0 873b
00000080: 54bf 0abb df86 283d e678 46bd e1da 8b3c
00000090: d23a 633c 7309 ae3c 2e2d 39bd 4da9 5ebd
000000a0: 60a8 4e3d 4a90 adbd bb1d 9fbd dcdc 7f3d
000000b0: c464 c5bd 4128 8c3b 1bea e2bd 3f06 7fbe
000000c0: 8cba 04bd a6b9 173e db94 323e ea74 353e
000000d0: 2d78 88be 6581 373d d0da c3bd 4cd1 e33d
000000e0: 3390 f339 5a43 0c3e 9688 17be 8dba b9bd
000000f0: 60d2 8ebe dd39 c1bc 9832 11bd eced 9b3c
00000100: 653e 85bd 7c9b 7e3d 09b0 e8bc 2800 793d
00000110: 90b4 443d 4340 19bc a849 933d c6bb 01be
00000120: 338f 983d 92fc 06be 07cb 3e3d c62b df3c
00000130: 982a 97bd f3b3 a73d c7ff a8bd 40e0 3cbd
00000140: dc1c be3d 7d75 3abe 4e2c 3dbe 28c9 1ebe
00000150: 1ca8 8d3c 1291 863d ee97 8ebd 73f1 ad3d
00000160: b0f2 273d 9551 8a3d 88fe 03be d243 033d
00000170: 316d c6bc b192 f9bc 016b 953d 84e5 013e
00000180: e2cb a0bc 2f8f b53c 2dee 1e3d f13b f8bd
00000190: 312a 1a3d b33e 363d 0db4 7e3d 4527 ad3d
000001a0: 460d 91bc c531 8bbd 94e6 b9bd e5f1 f4bb
000001b0: f982 7ebd 354f b83c ed98 8bbd 7195 453d
000001c0: e6b8 383d db78 debc 5baf 083e 833f 0dbe
000001d0: 97cb fa3b 2695 5dbc 2450 11be 540e f13d
000001e0: 4070 bcbd cf90 04be 9a28 663d 8480 c33d
000001f0: 36e5 b2be 0718 0b3e 1e51 0dbd 5d88 8c3d
00000200: fedb d2bd 3860 1fbe 626a 333c 9f46 cb3c
00000210: eafb 60bc b215 6cbd f616 df3c e79b c8bc
00000220: 426d 953b b200 89be 8858 9a3d fc2b 4fbe
00000230: 2b83 60bd c720 bf3c 199c 1bbd c2a9 39bd
00000240: 6dd5 69bc e3bb 22bd 09c3 a9bd 49f7 313a
00000250: 7341 78bd 9c7e 773d 18ef 13be 6a19 88bd
00000260: 9627 673d 7bec 82bd c056 1bbc abce 933d
00000270: 41a9 14bc ed13 94bc 9e82 20be 5c89 003c
00000280: ffae 53bd 04eb 9abc c039 783d 8c6c b23d
00000290: 6f10 bbbd 6b19 383d 8345 6cbc 5b8b 92bb
000002a0: 7908 813c d308 a93c 05e9 993c 9ff9 2fbe
000002b0: 2146 963d 3fb6 6e3b 7dae 4ebe 1b9f 5ebe
000002c0: 3a82 883d fb5e cc3d 3ef7 723d ef90 27bd
000002d0: 1e76 46bd 1ee2 a8bc 77d3 fcbc 1623 96bd
000002e0: 374e 96bd 62e2 1ebe c184 42bd ded9 d1bc
000002f0: 67cd 4d3d 6e59 66bd 6c48 96bd c079 393c
00000300: d8ec d0bc 7d33 223d f6c8 94bb d5e7 3abc
00000310: 13d4 eb3c 3511 703d 03e8 9fbd a233 2c3d
00000320: de36 d2bc 0b83 5a3d b6e9 873d 1d5f 68bc
00000330: b0eb 043d e51f 95bd a659 5dbd c830 8cbe
00000340: 58c5 933d f0ad d63d 2347 82bd 492c 4b3d
00000350: 3399 bbbc ea42 1fbe 0ca3 fc3c 4f54 edbc
00000360: a9b7 95bd 0028 c33d 6422 613c 47e6 0e3c
00000370: ca57 953d 194f 323d 4026 543d b8ae 963c
00000380: 801d 343d faf9 1abd 2f2a a8bc f3bd 5d3c
00000390: ae2e 0f3e acdd 39bd 7dc7 3cbd 0a63 e43d
000003a0: 92e1 a5bd 1543 0fbe 8e0a bcbb be8b 3ebe
000003b0: a110 293d 37c4 d63d 0e59 0f3d 0c96 2a3d
000003c0: b7e4 b3bd 88fd 0ebe cde9 cebd 405f 4dbd
000003d0: 5015 c1bc 3768 14bd e393 503d cd72 50bd
000003e0: c271 2bbb 1d14 c53d 9601 01bc 36aa 9e3d
000003f0: f259 39be 1d1b a1bc a7cd 06be 02de 55bd
0.027472716 -0.16498908 0.04272393 0.015985178 -0.039800204 0.05859639 0.06061362 -0.058771294
0.035898544 0.05003601 -0.12997329 -0.11126102 -0.03050592 0.039561085 -0.18645345 0.037033856
-0.036952935 0.035304423 0.06432201 0.017937059 -0.01209765 -0.20718053 0.07334671 0.022272656
-0.10790201 -0.112283625 0.15896249 0.05203324 0.014830701 -0.08461179 -0.24643317 0.0041466
-0.002117117 0.041144248 -0.04845514 0.017072143 0.013869004 0.02124474 -0.045209102 -0.054360677
0.050453544 -0.084747866 -0.077693425 0.062466487 -0.0963836 0.0042772596 -0.11079808 -0.24904726
-0.032404467 0.14816913 0.17439596 0.1772038 -0.26654187 0.044801135 -0.095632195 0.111239046
0.0004645601 0.13697568 -0.14798197 -0.09068785 -0.27894878 -0.023587162 -0.03544864 0.019034348
-0.065060414 0.06216 -0.028404253 0.060791165 0.04802376 -0.0093537 0.07191783 -0.12669286
0.07449188 -0.13182285 0.04658034 0.027242552 -0.07381171 0.081886195 -0.08251911 -0.0461123
0.09282848 -0.1820888 -0.18473932 -0.15506423 0.017292075 0.06570639 -0.06962572 0.084933184
0.04100293 0.06753842 -0.12890065 0.0320471 -0.024221988 -0.030465456 0.072958 0.1268521
-0.019628469 0.022163002 0.03880136 -0.12120808 0.037637893 0.04449339 0.06218343 0.08454756
-0.017706525 -0.06796602 -0.090771824 -0.007475125 -0.062136624 0.022498706 -0.06816278 0.04823822
0.045098208 -0.027157238 0.13348143 -0.13793759 0.0076536643 -0.013524329 -0.14190727 0.11770311
-0.092010975 -0.12945865 0.056191064 0.09545997 -0.349405 0.13583384 -0.034501188 0.06861947
-0.102958664 -0.15564048 0.010950657 0.024813948 -0.013731936 -0.057637878 0.027232628 -0.024488403
0.0045601437 -0.26758343 0.07536417 -0.20231622 -0.05481259 0.02333106 -0.037990663 -0.04532791
-0.014272076 -0.039729964 -0.08289153 0.00067888625 -0.060609292 0.06042348 -0.14446676 -0.06645472
0.056434236 -0.06392761 -0.009481132 0.07217153 -0.009073556 -0.018075908 -0.15674827 0.007845249
-0.05168056 -0.018910892 0.06060195 0.0871211 -0.09133994 0.044946115 -0.01442087 -0.004472179
0.01575111 0.02063409 0.01878787 -0.17185067 0.07337595 0.0036424545 -0.2018375 -0.21740381
0.06665464 0.099790536 0.05931782 -0.040909704 -0.04845249 -0.020615634 -0.030862553 -0.07330911
-0.07339137 -0.15516046 -0.047489885 -0.025616582 0.050244715 -0.05623763 -0.07338032 0.011320531
-0.02550356 0.039599884 -0.004540558 -0.011407812 0.028787648 0.05861016 -0.078079246 0.04204143
-0.025660928 0.05334763 0.06636374 -0.014182833 0.03245133 -0.07281474 -0.054040574 -0.27380967
0.07215375 0.10482395 -0.063612245 0.04960278 -0.0229002 -0.1555287 0.030839466 -0.028970866
-0.07310421 0.09529114 0.0137411095 0.008721895 0.07292135 0.043532465 0.05179429 0.01839386
0.043973446 -0.037836052 -0.020527927 0.013534057 0.1398265 -0.04537742 -0.046088684 0.11151703
-0.08099665 -0.13990434 -0.005738563 -0.18607995 0.041275624 0.10486644 0.03499704 0.041647002
-0.08783858 -0.13963902 -0.10103188 -0.050139666 -0.023569733 -0.0362322 0.050922286 -0.050890733
-0.0026160334 0.09622977 -0.007873913 0.07747309 -0.18100718 -0.019666249 -0.13164388 -0.052213676

layers.2.bias f4 [128]
00000000: 2da5 57bd 934a 41bd 3d7c 7bbd 7485 87bc
00000010: 96ec 213d 43fc a5bd 9fd9 5b3b 58cc f1bd
00000020: 9c63 fc3b 917c 233c 3b00 0b3d 5d24 61bc
00000030: 1d71 1c3d 734d e93d dfe9 0abc ebb8 10be
00000040: f316 093d a153 733d 53f5 d83c f391 633b
00000050: 5036 a23d db07 6fbd 1eb4 923a 6a7f 80bd
00000060: 678c 2ebd 940a 57bd 5796 39be db60 b43d
00000070: d1d9 ab3d a9f7 963d 2e4d bcbd 8e88 c6bc
00000080: eeda 6d3d 8c72 c3bd d15e 56be 48e3 babc
00000090: 3fbd 6ebd fe23 9a3a b413 46bd 6c6d 1dbc
000000a0: f5a5 9dbc 526e 41bd f4f7 edbd d520 dfbc
000000b0: cb43 863c b845 783c 4c0a 0ebd e0ae d5bc
000000c0: c04f ab3d cf43 2cbd 958a 563d cb37 e5bd
000000d0: fba6 0abd c240 b9bc f361 ca3b 15fe c2bc
000000e0: 430b b9bd 05ae dfbd 8eeb 8abd 8738 db3c
000000f0: 7aea 763d db6e d4bc 6667 093c 6459 29be
00000100: eb28 c73d 223b cfbc 4966 86bc d199 243d
00000110: f7c2 abbc 0f66 9abd 905f 843c 716d 38bd
00000120: 8e3b 9ebd 202e 91bd ccb1 a5bb d272 8cbd
00000130: a316 09be 6b1b 32bc 0c70 77bd 06f2 6bbd
00000140: 379b 1a3c 13c9 40bd 3eed 6fbd 6981 74bc
00000150: 909e 3b3b c364 0cbe 84bb f2bc 22d9 ad3c
00000160: 520a 3bbd 361b e2bb 8485 863c 3e1a 17be
00000170: 9b5f 133c d455 633d 22f0 e7bc 9b68 fcbd
00000180: c69b 143e 81ed 693d 47cb 1ebe a0c1 033d
00000190: b778 0dbd c2c1 74bd 96e2 b4bc c131 be3c
000001a0: ba58 15bd b95b f53c f432 8cbd 6463 033d
000001b0: 49ee ffbb bd82 2dbd 585c db3c bd12 653d
000001c0: 506d 82bc 9612 063d 49c5 8c3d ef21 a2bc
000001d0: 682d 9fbc 4623 363c 4e13 a3bd 4e7a be3d
000001e0: 40fc 42bd 7b40 563d 74cc 47bd 267e 9a3a
000001f0: ebaa 64bd 2e85 1ebd 3530 ff3b e76e 4fbd
-0.05264776 -0.04719026 -0.06139778 -0.016543128 0.039532267 -0.08104756 0.003354646 -0.118065536
0.007702304 0.009978429 0.033935767 -0.01374158 0.03819381 0.113917254 -0.008478611 -0.1413304
0.03346915 0.059405927 0.026484167 0.0034724444 0.079205155 -0.0583571 0.0011192595 -0.06274302
-0.042614367 -0.052500322 -0.18123756 0.08807536 0.083911546 0.07371456 -0.09194408 -0.024235036
0.058070116 -0.095433325 -0.20934607 -0.022813454 -0.058285948 0.0011759994 -0.048358634 -0.009608608
-0.019244174 -0.04722435 -0.11619559 -0.027237335 0.016389748 0.015153341 -0.03467779 -0.026084363
0.083648205 -0.042056855 0.052378256 -0.11192282 -0.03385065 -0.022613887 0.0061762272 -0.023802796
-0.09035351 -0.109218635 -0.0678321 0.026760353 0.060282208 -0.025931766 0.0083864685 -0.16538006
0.09724601 -0.025296751 -0.016406195 0.040185753 -0.02096699 -0.075389974 0.016158849 -0.045026246
-0.07726203 -0.07088876 -0.0050565954 -0.06857838 -0.13387541 -0.010870795 -0.06040959 -0.05760386
0.00943642 -0.04706676 -0.05857586 -0.014923432 0.0028628446 -0.13710313 -0.02963043 0.021221701
-0.04566414 -0.0069002165 0.016421087 -0.14756104 0.008994962 0.055501774 -0.028312746 -0.123246394
0.14512548 0.057111267 -0.15507232 0.032167077 -0.03453895 -0.059755094 -0.0220807 0.023217084
-0.03646157 0.029950963 -0.06845656 0.03207721 -0.007810388 -0.04236101 0.026777431 0.055926073
-0.015921265 0.03273257 0.06873567 -0.019791571 -0.019430831 0.011116808 -0.079626665 0.093006715
-0.047603846 0.052307587 -0.048778966 0.0011786863 -0.055827063 -0.03870123 0.007787729 -0.050642874

layers.4.weight f4 [2, 128]
00000000: 255e 86be 9d25 da3a 00fb 853b e3a5 643d
00000010: b6aa c9b9 dbd4 a9be 0c56 173b c2ef 723e
00000020: b754 10be 0285 f03a 1957 18ba 6b99 553a
00000030: dbfb 7cba d395 7ebc dd96 15be 0dd3 883c
00000040: 212c 033b 1950 15ba a1ed 873c ec7b 13ba
00000050: 493c 543c 647b 20ba 033d cb3d b1fe a8ba
00000060: 657d db3d 67b6 a2bd a916 b43e 4faf ff3d
00000070: 83a1 473d 35c1 e3bd 8469 a1be 3d2f 613a
00000080: 4a9a fcb9 a2d9 83bd 920f 783e 3c61 3dbe
00000090: e73a a3be ff87 c23a 00d1 81be 241c 243a
000000a0: 6ac0 d4b9 6135 abbb 07eb 23bd 6214 36be
000000b0: 4c80 b03d 2fe4 bab9 851b c3bd c567 47bd
000000c0: 081f 57bd 4b75 37be a619 b53a 81e5 2ebe
000000d0: aa61 8bbe 0798 9c3d 3f3e 26be a594 36bb
000000e0: 4a8b b93d c5d3 ba3d 2a58 a6be 0444 063b
000000f0: d79a 54bd 06b8 cfbd 71bd cfbd 5701 663e
00000100: 3497 cfbd 189e 40be 9d18 093b d223 423d
00000110: fe7c 3e39 af83 96bd 1592 4939 8fa7 5b3a
00000120: f169 acbe d0c9 58be 1fb7 5abd f710 863d
00000130: dc0c 0dbe e37e c6bd 63a8 04ba 206d ed3a
00000140: 99aa c7b8 ab0b 60bd 8c12 c83a 38ec 2e3c
00000150: 8333 11be 8f6d 51be 73b2 20bd 5f39 a5bd
00000160: 912b 103b 9e39 8bbc 135d db3d 43fa 533e
00000170: ee5d 8bbb 5897 f43a ef74 8939 179b f4bc
00000180: 0737 493e 150d bcb9 bb29 673e ae4c 60bd
00000190: 013e 7d3a 9ef0 3a3e 7607 103b 602c d2bd
000001a0: b5d6 1abb 8296 d63a c9b3 cfbe 98bd 84be
000001b0: efc8 ec3a 86bc cf3a 86c8 cb3a 92f4 c0be
000001c0: d391 113e 28c0 953a 6fc5 483d 3f31 b53c
000001d0: 8642 73bd 5cc4 3aba 6837 54bd 5ade 9c3e
000001e0: f4a1 aa3c 133f 543e d8b4 ea3a d5b8 e4bd
000001f0: 8aad 49be 094c a0bd 2f40 833d 7ec8 b03d
00000200: d19a e8bd be4b 9dba ce65 8cbc 22a9 703e
00000210: c463 9d3a 23f1 b53d 6f65 1b3a fdf5 eb3d
00000220: 718d 163d 8f98 71ba aa7a 683a 8088 063b
00000230: 4751 bcba dc85 6ebe 289e 3ebd 0844 be3e
00000240: 151f 90ba a8c8 01bb f8d1 e2be 264b 5eb9
00000250: ceea 853e 4aad 98ba 494a fcbd 91fd f6b9
00000260: 47b3 173e e001 0c3d dac4 f1bc 8f49 ecbd
00000270: 5486 97bd 5cea 14bf 6e23 56be 3aeb 983a
00000280: 4a26 01ba fc0c 08be 744e 193e fc0e 463e
00000290: be47 eebd 274c 02bb 3d4f c33e c068 e0ba
000002a0: 39c0 e5ba 926d 353e 24e1 153e 41c1 293e
000002b0: 5ebf a93c 16c0 113a 62c7 f03c b79a f43d
000002c0: b0e2 66be 6894 cdbe cb8d f13a 9e85 9abd
000002d0: 5513 373f cd50 0ebf 2083 65bd 1dd7 8e3e
000002e0: acf7 403e a597 2f3e 0f78 723e cb90 1c3b
000002f0: effa edbe 77c7 ae3e 16fe d2be 2e0c 093e
00000300: 7ff2 28be 32f4 e2bd 52f0 2e3b 1b0e 89bd
00000310: b012 c13a 8812 8b3d 81aa 8c3a a770 ca39
00000320: 9080 a1bb 3b26 233e 0237 6abe 2230 f23e
00000330: a94c 2cbe bc77 2f3e e936 d33a 506f 553a
00000340: 1bcd f4b9 c81a e1bb 3ec3 0e39 a6d7 77be
00000350: 0c55 03be bb0c 5cbe 3cf8 4c3e 3261 a6bb
00000360: 6e5d eb3a 9228 c43d 175b cdbe 3e53 3bbd
00000370: ce98 5b3e a7dd 82ba 7678 7ab9 6145 843d
00000380: 72ab 05bf 4b70 8039 c932 393e 2070 9abe
00000390: 1ffc 1e3a 407c 543e 47ab 49ba 5c23 ce3e
000003a0: b8c9 d53b 4aa0 843a 8d2e b53c 0ded 86bd
000003b0: a3f2 03bb df58 5b3a 4a9d ceba 2b48 e73e
000003c0: a17d e23d 173e 043a a346 8abd ead0 6cbe
000003d0: cdba f63c 4da8 a0ba 9f2b af3e 790c 06bf
000003e0: 4d31 aa3e c19d abbe cf79 843c 7fea f03e
000003f0: 0ed1 393b 06d3 9cbe bed6 85be 67b4 063e
-0.26243702 0.001664329 0.0040887594 0.055822264 -0.00038464897 -0.33170208 0.002309206 0.23724273
-0.14094816 0.0018350186 -0.00058113184 0.0008148166 -0.00096505665 -0.015538651 -0.14608331 0.0167022
0.0020015317 -0.00056958344 0.016592802 -0.0005626071 0.012953826 -0.0006121902 0.099237464 -0.0012893287
0.107172765 -0.07944947 0.35173538 0.12484609 0.048738014 -0.11120836 -0.31525815 0.0008590108
-0.0004818014 -0.064379945 0.2422469 -0.18494123 -0.31880876 0.0014841555 -0.25354767 0.0006260297
-0.0004057915 -0.005224869 -0.04001906 -0.17781213 0.08618221 -0.00035646695 -0.09526733 -0.048682947
-0.052519828 -0.17915837 0.0013816848 -0.17079736 -0.2722295 0.076461844 -0.16234683 -0.0027859595
0.090597704 0.09122423 -0.3248914 0.0020487318 -0.05190548 -0.101425216 -0.10143555 0.22461449
-0.101362616 -0.18810308 0.0020919212 0.047397442 0.00018166375 -0.073493354 0.00019223274 0.0008379155
-0.33674577 -0.21170735 -0.053397294 0.065462045 -0.13774437 -0.096921705 -0.0005060492 0.0018114187
-9.520836e-05 -0.054698627 0.0015264316 0.010676436 -0.14179806 -0.2045195 -0.039232682 -0.08067583
0.0021998624 -0.016995247 0.10711112 0.20700936 -0.0042531407 0.0018660827 0.000262178 -0.029859109
0.19649898 -0.000358679 0.22574513 -0.054760627 0.00096604234 0.1825585 0.0021977103 -0.1026237
-0.002362651 0.0016371759 -0.40566853 -0.259259 0.0018065254 0.0015849031 0.0015547432 -0.37686592
0.14215784 0.0011425065 0.049016412 0.022118209 -0.059389614 -0.0007124597 -0.051810652 0.3063839
0.020829178 0.20727186 0.0017906679 -0.111680664 -0.19695106 -0.078270026 0.064087264 0.08631991
-0.11357654 -0.0012000722 -0.017138388 0.23502019 0.0012007882 0.08883884 0.00059278955 0.11521528
0.036755983 -0.00092161534 0.0008868376 0.0020528138 -0.0014367484 -0.23293251 -0.04653755 0.3716128
-0.0010995591 -0.0019803438 -0.44300818 -0.00021199565 0.26155704 -0.0011648324 -0.12318856 -0.00047109698
0.14814483 0.034181476 -0.029512811 -0.11537468 -0.07398668 -0.58170104 -0.20911953 0.0011666783
-0.0004926665 -0.13286203 0.14971334 0.19341654 -0.116347775 -0.0019881816 0.38146392 -0.0017121062
-0.00175286 0.17717579 0.14636666 0.16577627 0.020721134 0.0005559934 0.029391948 0.11943572
-0.22547412 -0.40152287 0.0018429098 -0.07545017 0.71513873 -0.5559204 -0.056033254 0.27898493
0.1884448 0.17147692 0.23678611 0.0023890014 -0.4648051 0.34136555 -0.41209477 0.13383552
-0.16498755 -0.11081733 0.0026693535 -0.066921435 0.0014730301 0.06790644 0.0010731966 0.00038612375
-0.004928656 0.15932553 -0.22872546 0.47302347 -0.16826119 0.17135519 0.0016114387 0.0008141892
-0.00046692122 -0.0068696477 0.00013614909 -0.24203357 -0.12825412 -0.21489231 0.20016569 -0.0050775046
0.0017956921 0.09578051 -0.4010856 -0.045733683 0.21445009 -0.000998427 -0.00023886733 0.064585455
-0.5221473 0.00024497727 0.18085779 -0.3016367 0.00060647907 0.20750523 -0.0007693064 0.40261352
0.006524291 0.0010118571 0.022116924 -0.065881826 -0.0020133636 0.000836743 -0.0015763429 0.45172247
0.11059118 0.00050446525 -0.06751754 -0.2312657 0.03011837 -0.0012257189 0.34212968 -0.5236278
0.3324074 -0.33518794 0.016171364 0.47053906 0.0028353366 -0.30629748 -0.26140398 0.13154756

layers.4.bias f4 [2]
00000000: fca7 e63d 7ebe 2dbe
0.11262509 -0.16967198

layers.0.weight f4 [256, 24]
00000000: f227 8e3c bd83 8cbd 63a3 24bd 013c 8c3c
00000010: 33c6 8cbd 0c63 df3a 9c03 143d 0c86 8b3c
00000020: 630a 3d3b 1d58 6dbd 6e87 7a3b 6590 783d
00000030: 9149 7abd 4d36 92bd f848 103b a34e 783d
00000040: 6458 56bc 8732 45bc 4585 983c fece 6c3d
00000050: fdd6 96bc 0a50 c8bd 7c83 fbbb fd5c 6d3d
00000060: d373 19bc f0c7 cb3c 3d07 8fba 3ec0 cb3b
00000070: 3980 7bbc ad66 ecbb 6c33 8f39 4098 cb3b
00000080: f1d0 263c 91db 233c f2f0 3fbc 893e 62bc
00000090: 8ae2 4bbd 3441 ccbc 0f0f 253c 5a7a 62bc
000000a0: 30b1 043d 52c0 bebc 7bfe dbba 58e3 12bc
000000b0: 338e cabd 6571 64bd a014 2d39 f948 13bc
000000c0: 5534 273d e630 6a3d 3154 91bb dd35 0a3d
000000d0: 7051 83bd d5eb c5bd 2725 163c 6035 0a3d
000000e0: 2c6e 953d 8d8a 763d 032e cf3c 015d 5a3d
000000f0: 1e09 0bbd e5d9 1ebe 3fd1 21bc 5a5a 5a3d
00000100: 0775 913d 7811 1f3d 2954 a83b cd11 aabd
00000110: 136c dabd 35af 8dbd 4475 5cbd 9603 aabd
00000120: 4de0 433b 3f6d 223d d7cd ca3b 40c8 633b
00000130: dd8e 3a3e 1ddc 89bd 3fdf fcbb f27b 643b
00000140: 85cc a93c df47 0f3c 6e91 14bc 9e15 40bc
00000150: a47c 8b3d d50f 633d fab5 813b b62a 41bc
00000160: 3007 833c 5b9e f9bc e462 c2bb 82a9 24bd
00000170: 084f 59be 2bbf 7e3e 518c 84ba 0f23 25bd
00000180: 2584 03bd 1312 8dbc 13ea 4dbd 2a4a a6bc
00000190: 8b12 5bbd c2c9 d0bc c8ee 403c 0c37 a6bc
000001a0: 82a3 373c 2b74 bcbc af80 a53a ccc4 6abc
000001b0: 4cb6 22bd 9942 5bbd 4260 c9bb 2752 69bc
000001c0: d9b8 0e3d 7392 a9bc 8aec 84bd e74a 6a3b
000001d0: a894 d93d b8df 89bd 5373 8d3d 8403 6a3b
000001e0: bfc2 f63c 23f6 e5ba 0eef 02bd 9553 22bc
000001f0: 2c2b bfbd 6777 bd3b 3f1d 593c 6d03 22bc
00000200: d96b 813c 83df 82bb a873 74bc 1df4 10bc
00000210: b346 3a3d 4532 cbbd 323b 823c e8e7 10bc
00000220: 7a34 383b f758 d0bb 1c35 25bd c8b6 47b9
00000230: 02b5 303d 244c 2ebd 9f99 283d cf66 89b9
00000240: a2ef 183d 2211 7abc 42d5 a0bc ed88 e73c
00000250: f7dd 8cbc 46ea 90bd ed26 dfbb d5f4 e73c
00000260: 184b 353d a2e2 91bc e1fb 92ba b9ea 04bb
00000270: 280a 1c3b 0d34 57bd 810b 3ebb 038d 0bbb
00000280: ae95 213d db1c b6bc 9f6e bf3c 28d3 bfbc
00000290: 1f0c 5fbc c7e3 8abc 0b0b b23a a723 c0bc
000002a0: 5b6d 193c 6e6d fa3d feca 123c 7fdf 063d
000002b0: fecb 25bd db7d 933d 1fb7 06bc bde0 063d
000002c0: 1eba b63c 3ebb fe3d c1ed d1ba 245a aa3b
000002d0: a073 193b bfb3 6f3b 91aa 4cbc 5c69 aa3b
000002e0: 7e8c 273d 7cb7 e23d 253c 8e3b e61b 47bd
000002f0: bfcb fbba 4161 89bd fe8a e53b 0b29 47bd
00000300: 6e71 6bbc d6ef 513c 4a9c 41bc ce72 a23b
00000310: d77d b2bd 09e6 14be a63c 4b3c f177 a93b
00000320: 244f c13b 1564 ad3c 9117 bc3b 03ff 7f3b
00000330: 151f aebc e761 d0b8 c380 21bc a2f9 5c3b
00000340: cf15 783d a097 513d 37f5 c73c 0868 d53c
00000350: f573 5f3e 8235 123e 52b3 e7bc 1f55 d43c
00000360: 69f3 da3c 55d3 30bc 94c2 f33c 6925 13bc
00000370: 1924 6dbb af60 4dbc efd0 d9bc c0f7 12bc
00000380: 8f2a 3b3d ee77 e0bb 43a4 2f3c 2842 273d
00000390: 725c bfb9 782a 04bd d8b5 e1bc f34d 273d
000003a0: 4a96 c63d b8d2 9fbb ff03 2fbd 9d56 5fbc
000003b0: ce03 393d 3771 643a 8fa4 c93c 7c3a 5fbc
000003c0: 426f 6abc d236 a33d ae47 1abb 84c0 483d
000003d0: fe81 a7bc d4b0 133e 4d36 9fba b8bf 483d
000003e0: 60b9 9f3c 81e6 ba3d e930 2ebc 19af e63c
000003f0: 1c15 9a3c 351c 04bd 8d61 d93b ad48 e63c
0.017353032 -0.068610646 -0.04019488 0.017118456 -0.06873741 0.0017043068 0.036136255 0.017031692
0.0028845302 -0.05794536 0.0038227695 0.06068458 -0.061105315 -0.07139263 0.002201615 0.06062187
-0.013082597 -0.012035972 0.018618235 0.05781459 -0.018413061 -0.09780891 -0.0076755863 0.05795001
-0.009365994 0.024875611 -0.0010912191 0.0062179854 -0.015350395 -0.0072143883 0.00027313398 0.006213218
0.010181651 0.010001079 -0.011715161 -0.013808855 -0.04977659 -0.024933435 0.010074391 -0.013823116
0.03239554 -0.023285065 -0.0016784215 -0.008965336 -0.098904036 -0.055772204 0.00016506249 -0.008989566
0.040821392 0.05717554 -0.004435085 0.033742774 -0.06412017 -0.09664122 0.009164131 0.03374231
0.07296404 0.060190726 0.025290495 0.05331135 -0.03394424 -0.15512808 -0.009876548 0.053308822
0.07102399 0.03883502 0.005136986 -0.083041765 -0.10665145 -0.06918184 -0.05382277 -0.08301465
0.0029888332 0.039654966 0.006189089 0.003475681 0.1821856 -0.067314364 -0.0077170427 0.0034863916
0.020727405 0.008745163 -0.009067876 -0.011723904 0.06810883 0.05543502 0.003958461 -0.011789968
0.015994638 -0.030471018 -0.005932199 -0.040200718 -0.21221554 0.24877612 -0.0010112618 -0.040316638
-0.032108445 -0.017220533 -0.05027206 -0.020299036 -0.05348448 -0.02548683 0.01177568 -0.02028992
0.011208417 -0.023004612 0.0012626852 -0.014329147 -0.039724633 -0.05353031 -0.006145508 -0.014240778
0.034844253 -0.020699715 -0.06490429 0.0035750212 0.10624057 -0.06732124 0.06906762 0.0035707662
0.030122159 -0.0017544668 -0.03196626 -0.009907623 -0.09334406 0.005782056 0.013251602 -0.009888512
0.015798496 -0.00399393 -0.014920153 -0.008847264 0.04547758 -0.099216975 0.015897367 -0.008844353
0.002810745 -0.0063582617 -0.040333852 -0.0001904621 0.043141373 -0.042553082 0.04116213 -0.00026207275
0.037337907 -0.015262874 -0.01963294 0.028263533 -0.017195685 -0.07075934 -0.0068100602 0.028314987
0.044261068 -0.017808262 -0.0011213982 -0.0020281507 0.0023809765 -0.052539874 -0.0028998556 -0.0021293766
0.039449386 -0.022230556 0.023368178 -0.023416117 -0.01361373 -0.016954316 0.0013583613 -0.0234545
0.009364451 0.12227903 0.00895953 0.032927986 -0.040477745 0.072017394 -0.00822237 0.03292917
0.022305544 0.12438057 -0.0016016291 0.005198734 0.0023414865 0.0036575643 -0.012491838 0.005200548
0.04090547 0.11070153 0.004340666 -0.04861059 -0.0019210501 -0.06708003 0.0070050946 -0.048623126
-0.014370305 0.012813529 -0.011817047 0.0049575334 -0.08715408 -0.14540876 0.012404596 0.005171769
0.005899327 0.021165887 0.005740114 0.003906191 -0.021255055 -9.9364486e-05 -0.009857359 0.0033718129
0.060567673 0.05116999 0.02440892 0.026050583 0.21821578 0.14278224 -0.028283749 0.025919495
0.026727395 -0.010792573 0.029755868 -0.008981087 -0.0036184846 -0.012535258 -0.026588885 -0.008970201
0.045694884 -0.0068502342 0.010720315 0.040834576 -0.00036499236 -0.032267064 -0.02755253 0.040845823
0.09696634 -0.0048774146 -0.04272842 -0.01363149 0.045169644 0.000871438 0.0246146 -0.013624784
-0.0143087525 0.079694405 -0.002354126 0.049011722 -0.020447727 0.14422923 -0.001214692 0.049010962
0.019497573 0.091259964 -0.010631778 0.028159665 0.018808894 -0.032253463 0.0066339434 0.028110826

layers.0.bias f4 [256]
00000000: e65b 273d f631 34bc 1858 1cbd 94a3 ffbd
00000010: 040c 17bc 2e53 27bc c25d 50bc ea45 a33c
00000020: 2b81 28be 078e 16bd 0cfb c83c 31ef 87bc
00000030: 957d f4bc 7c34 28bd 9042 72bd 3520 c1bc
00000040: c074 28be df79 feba 1945 03bc 98c5 1dbe
00000050: f5e3 a0be b724 f53d 95d1 86bc 5bcb f73d
00000060: 36de 44bc 945a 58bc 447a 19bc c1da 003c
00000070: db1f d7bd 578b c8bb 3d36 51bc 1c2c de3b
00000080: 5249 0fbe 368a 2aba 9db7 20bd 6e42 bcbc
00000090: 9a7a 953d 5b0e f9bc d994 cabd 22d7 33bd
000000a0: 4229 5a3b e603 c0bd 2507 8ebd 36ce 9cbd
000000b0: ca82 af3d 8d4b ae3c 115d 08bc e4a7 52bd
000000c0: dce6 c93c 7725 dabb c6a9 47bd 5e46 cd3c
000000d0: 96f1 e53c f69d 573d ded4 de3c 76d6 89bd
000000e0: 533c d2bb 41b9 5a3d f3e4 99bc 396b f1bb
000000f0: 93c3 6bbc d14d 413c 63e1 47bd 26a0 b03a
00000100: 51fc 2cbe dc84 16bd 8a07 f83c a9ea ddbd
00000110: db58 68bb 9986 5ebc 3419 be3a d374 08bc
00000120: 18bf 063e 6b43 bdbb 2560 473c 4197 cd3b
00000130: cc7a 9d3a d45e 1ebe c243 41bc 8ed7 40ba
00000140: bf33 ffbd 47f8 c6bc 4f25 ad3d 4ef6 ddbc
00000150: fd2b 3e3d 08d1 86bd 7148 88bc a635 48bb
00000160: f4c0 b53b 65a5 9fbc 3c41 e1bb 8b42 323e
00000170: d2e5 1abe 836c 09bd 262f 46bd 5782 543d
00000180: b20c 3bbd 607e cdbb 6fde e33c 7468 0abc
00000190: 2446 40bc e229 a9bc f4f8 2fbd f4b4 02be
000001a0: 5777 21bc 3a01 76bc ff38 87bd 07a9 b7bb
000001b0: 41ea 2ebe 9dd5 233d fde9 863c f2c4 913a
000001c0: 1d87 0bbd de3c 94bc e273 01bd ef72 ffbd
000001d0: 9d07 34bc a32c 943c ac62 903d e405 a93d
000001e0: 8263 a0bb 8572 7cbd 771c 173e 67e2 30bc
000001f0: 3146 98bc 2b08 5ebc f8a7 1bbd bc39 a1bb
00000200: a202 dabb 7d81 8f3c 5090 a9bc 06f7 09bd
00000210: 1e64 2bbc d793 dbbd d8aa 17be 3290 64b9
00000220: 623c 7abc df00 843c 910d 963d 4b7d 3abe
00000230: da6f 193d 3174 b8bc 0a09 b33c 58b6 95bb
00000240: 6511 36bb 7c53 b23c 82ab 5bbb 7dd0 8f3c
00000250: 1c65 ebbb 6dcf 8fbc 9d71 e2bd a1ab 393d
00000260: 3723 973c 7bef 3e3d e7ba 8b3d 36ef 5bbc
00000270: 82c5 c13c c93e da3b d0bc 503d ebbb 05bd
00000280: 6ac4 85bc adbe 10bd 2cf5 99bc cf4b adbc
00000290: 1668 f13c 06e9 563d 55c3 993d 2eb4 6e3c
000002a0: bce0 853d a6a9 c8bb 0066 d93a e82d fbbd
000002b0: 7027 7dbb c0bb 1c3c 32b2 e4bb 6c22 da3d
000002c0: a041 17bb fee1 67bd 991f d53b b4ef 7f3c
000002d0: 1363 42bc 3d39 0dbe 1c39 883d 98c1 9f3d
000002e0: 6441 5abc 5130 33bc ba07 05ba 1248 a939
000002f0: 6fa6 03bd 638a e4bb 13e8 04bc c7a9 b33c
00000300: 8abd d2bb b451 b2bd 3e76 cc3c 8afe dabd
00000310: 5dfb 57bc 248c 63bc 13d2 7eba 4db0 0d3c
00000320: 90b6 abbb 99ec 55bc aaee 183e 3890 f6bc
00000330: b873 543c 2f82 0a3d 48d7 39be 1404 0d3c
00000340: 2986 d9bb a53c 5f3d 63d6 653d d84f e5bb
00000350: 7dad 14bc ea1a e0bb 333f d9b9 3bd3 64bd
00000360: a434 61bd fa1a 8a3d 8937 c33c 8999 acbc
00000370: 7dea e63c e9ca 87bc 65c9 ae3c d2f9 d23b
00000380: 551e 01bc c482 093c be36 9cbb 71cc 0abe
00000390: 232e 743b 96e7 27bc 2fa9 293c 4337 803d
000003a0: e845 d5bc 0025 b2bc f7f9 babb bb4a 6dbe
000003b0: c22b 2b3d 81e2 1abc 4434 a7bd ed8a c9bd
000003c0: c44d cdbd c99f 1c3e 6b6d 9f3b dc05 42bd
000003d0: e6c5 c9bd 0a23 4a39 9451 cfbd 6c86 a53b
000003e0: 8fe3 57bc b881 65bd 7cc1 253d c155 f13c
000003f0: 47c4 41be 0062 54bd 753a 99bc abe4 283c
0.040859126 -0.01099824 -0.03816995 -0.12482372 -0.009219173 -0.010212703 -0.012717666 0.019930799
-0.16455524 -0.03675654 0.024533771 -0.016593548 -0.029845038 -0.041065678 -0.05914551 -0.023574928
-0.16450787 -0.0019414983 -0.00801208 -0.15407407 -0.31423917 0.119698934 -0.016457358 0.12099334
-0.01201587 -0.013205189 -0.009367529 0.007864655 -0.10504123 -0.006120126 -0.012769279 0.0067801606
-0.13992813 -0.00065055804 -0.039237607 -0.022980895 0.07298775 -0.030402353 -0.09891672 -0.04390634
0.0033288752 -0.093757436 -0.069349565 -0.07656519 0.08569868 0.02127626 -0.00832297 -0.051429644
0.024646215 -0.006657298 -0.048745893 0.025057968 0.028069299 0.052640878 0.027201112 -0.06730358
-0.0064158826 0.05339933 -0.01878593 -0.0073675183 -0.01438989 0.011798338 -0.04879893 0.0013475462
-0.16893126 -0.0367478 0.030277032 -0.108357735 -0.0035453353 -0.013581895 0.0014503361 -0.008328634
0.13158834 -0.005775859 0.012168919 0.0062741344 0.0012014746 -0.15465862 -0.01179594 -0.0007356339
-0.12461042 -0.02428831 0.08454382 -0.027094986 0.04642867 -0.06582838 -0.016636105 -0.0030549555
0.0055466834 -0.019488046 -0.0068742316 0.17408197 -0.15126732 -0.03355075 -0.048384808 0.051882114
-0.045666404 -0.0062711686 0.027816026 -0.008447755 -0.011735473 -0.020649854 -0.04296203 -0.1276434
-0.009855113 -0.015014941 -0.06602668 -0.0056048664 -0.17081548 0.03999864 0.016468996 0.0011121316
-0.0340644 -0.01809543 -0.031604655 -0.12473094 -0.010988143 0.01808769 0.0705007 0.08253077
-0.0048946748 -0.06163265 0.14756952 -0.010796166 -0.018588157 -0.013551752 -0.038001984 -0.0049202126
-0.006653146 0.0175178 -0.020698696 -0.033682846 -0.0104608815 -0.107215576 -0.14811265 -0.00021797491
-0.015273185 0.016113697 0.07326806 -0.18211858 0.037460186 -0.022516342 0.021854896 -0.004568856
-0.0027781364 0.021768324 -0.0033518975 0.01755547 -0.007183684 -0.017554963 -0.11056826 0.045329694
0.018449409 0.046615105 0.06822758 -0.013423732 0.02365375 0.0066603166 0.050961316 -0.032649916
-0.01632901 -0.035338093 -0.018793665 -0.021154312 0.029468577 0.052468322 0.0750796 0.014569325
0.06537005 -0.0061237393 0.0016586185 -0.12264615 -0.0038628243 0.009566247 -0.0069792503 0.10651097
-0.0023079887 -0.056612007 0.006504011 0.0156211145 -0.011864441 -0.13791366 0.06651518 0.07800597
-0.013321254 -0.0109368125 -0.0005074699 0.00032287888 -0.032141145 -0.006974505 -0.008111971 0.021931542
-0.006431286 -0.0870699 0.024958726 -0.10693081 -0.013182488 -0.013888393 -0.00097206346 0.00864799
-0.005240269 -0.013056898 0.14934793 -0.030098066 0.012967043 0.03381556 -0.1814853 0.008606929
-0.0066383076 0.054501195 0.05611266 -0.0069980435 -0.009074566 -0.006839146 -0.00041436552 -0.055865508
-0.054981843 0.067434266 0.023830192 -0.021069305 0.028187985 -0.016576247 0.021336267 0.0064384723
-0.007880767 0.008392993 -0.004767268 -0.1355455 0.0037258945 -0.0102480855 0.010355278 0.0626054
-0.02603431 -0.021746159 -0.0057060677 -0.23173039 0.041789778 -0.009453417 -0.08164266 -0.09840951
-0.10024598 0.15295328 0.0048653386 -0.04736887 -0.09852199 0.00019277274 -0.10122982 0.0050514247
-0.013176813 -0.056031913 0.040467724 0.029459836 -0.1892253 -0.051851273 -0.018704632 0.010308425

layers.2.weight f4 [128, 258]
00000000: 3582 303a f1fa 4d3b 79bd d4ba b788 323b
00000010: 9773 6cb9 34a8 8fb7 cb01 d439 e71d 1f3b
00000020: afde dabb 52ac 91b8 0b4a 8dbb 9db0 4c39
00000030: 7f63 c3b9 9fa5 88ba 5fbf 97ba fa13 4fb8
00000040: e7ad 103b 483d 6db9 3c80 1438 6e44 54bb
00000050: a7e2 a7b9 bfd2 cf3b 9b5d a8bb 44a8 cdb9
00000060: 3563 2ab9 adf7 143a 5596 e3ba 4c67 86b8
00000070: a673 04ba 188b ef39 14f6 4b39 c459 d836
00000080: 4d01 00bb e96a d3b8 7d4d 9eb8 26ed 89b9
00000090: adaa a6bb ce27 c438 6bed 5ebb 235e 1d3a
000000a0: 1184 5ab9 e45c a9ba 0d66 83b9 3ba7 0ebb
000000b0: 2136 f6bb 827f 32bb 6dc7 c0bb 9629 14bb
000000c0: 3a19 e3ba 13d3 99b7 4141 83ba 481f 143b
000000d0: 37b4 2dbc d81f feba 25e9 0cb9 5cef 9dba
000000e0: ba08 8db6 c03d 653a 4a57 d238 dc39 a5b9
000000f0: af02 a2b8 2a7d 143a 83a8 3837 ab8f c2b7
00000100: 366c 8fbb 598e 89bc 90a1 6fbb 0595 e2bb
00000110: 6bcc 6139 e010 82bb 2cf3 e73a b0bc 8cba
00000120: 0ae6 fe38 4202 cab9 ec79 533a 5af4 6aba
00000130: 9079 b63a cbe5 98ba d95b 9039 991d 1cb8
00000140: d6db 43bb ff97 4fb9 acf3 643b a1b7 9eb8
00000150: e6ea 8db9 3153 ffba d815 dfba a693 67b8
00000160: a040 aa39 2471 bc38 5be5 07b9 4421 ba3b
00000170: 6cd1 4fbb bcf4 cbbb 3fc3 03bb 3c7b bbbb
00000180: 112e 95bb bbaf 5bb9 76f8 bcba ddad 7cb9
00000190: 5a89 08bb a9fc 86b9 e1b9 b8bb 4ce1 39ba
000001a0: c86d 3cb8 8290 65b7 dd08 94b9 1cdc b4b8
000001b0: 2b6c 373a 4dea 52ba bdf4 79ba 2d96 ccb8
000001c0: 5a00 06bb 6d5a 6338 1f45 a6bb f170 4cbb
000001d0: 1f0b 12ba 4657 e0bb 5a14 acbb a651 4cb9
000001e0: 4772 a5b8 4c9e f2b9 62ca 0fbc 4148 8dba
000001f0: b072 5739 dc6e 693b 3481 af37 a9d4 8839
00000200: f79b d6b8 91bd 19bc 711e 1cb9 41da 92ba
00000210: 326f 9539 38cc 85bb 8e44 193b 32c0 4f3a
00000220: a049 bbb9 a625 4aba 52b3 45ba 1e21 be3a
00000230: e922 b2bb bbb3 d5ba 5949 52ba e235 77b8
00000240: ad71 faba 5441 bdba 4da6 9eb8 f475 66b9
00000250: 73d8 8e39 8caa 9939 c9d5 58bb f709 2838
00000260: 7517 edb9 9a59 c9bb 8eee 13bb 2997 4b38
00000270: 04ff 94b9 d152 afba 9ec0 a6bb a6b7 bbbb
00000280: dfc4 56b9 6a18 26b9 9255 3cbb 91fc abba
00000290: 3aa2 bbba eebf 0ebb 441e fd39 c3e9 0a39
000002a0: 5250 1bbb 5595 5cb8 afea 54bb e366 1cbb
000002b0: d943 67b8 e13e d63a cd29 96b7 7d45 2a3b
000002c0: e997 92ba 95fe 3b3b ed4c 5fbc 5f48 3eb9
000002d0: 56bc 4f3a 466b 00bc f919 44bb 38d6 043b
000002e0: 79e1 11b7 0736 6038 adb2 c4ba 9f1a ae38
000002f0: 0617 3d3a 0fc3 ca3b a673 65b8 3bf3 80bb
00000300: 585c 4836 e23f e4bb 039c ccb9 50c5 87bb
00000310: 78f4 7238 ceb2 273a 1b43 a8b9 ddf7 00bb
00000320: 11d9 02ba 34b6 14bb 4b87 f8ba 0259 2cba
00000330: 0b0a 0db9 c5c2 62bc ebd5 1b3b 38ae 4fbb
00000340: ace0 c1b9 df2c 4cbc 9064 1cbc ec54 66b9
00000350: e3ba 4d3a 6113 e6b9 8801 a6bb c927 63b9
00000360: a35c 113b 8d07 da39 c55d 0fba ff36 8ebb
00000370: 08dd cabb cd17 25ba b0ff 9b3a 4eee 9db9
00000380: 4894 dbb8 11ce 56bb cf22 6fba b605 833b
00000390: d2c6 ea39 99b7 adb8 e9d2 71b8 93df 673b
000003a0: 9d77 96ba 0fc3 c8ba 81fa f538 b103 843a
000003b0: 7eca ceba 5a31 943a 0980 df3a daac 72bb
000003c0: 2080 153a a210 1abc ffbd e739 9087 e5ba
000003d0: 0493 803b aec3 53b9 2c49 7fba 6c58 fab7
000003e0: 6e3f e0bb 52a7 d3b9 fc32 d0bb a784 b03a
000003f0: 422e 833b 776c adbb 5d58 01b9 532d 20b8
0.00067332695 0.003143009 -0.0016230784 0.0027242133 -0.00022549774 -1.7125254e-05 0.00040437127 0.0024279298
-0.006679378 -6.946236e-05 -0.004311805 0.0001952075 -0.0003726743 -0.0010425335 -0.0011577419 -4.937125e-05
0.002207631 -0.0002262491 3.5405377e-05 -0.003238942 -0.0003202159 0.0063422616 -0.0051381118 -0.00039226015
-0.00016249421 0.00056826585 -0.0017363528 -6.4088585e-05 -0.00050526334 0.00045689265 0.0001945126 6.4477517e-06
-0.0019532025 -0.000100811776 -7.5484604e-05 -0.00026307366 -0.005086264 9.3534225e-05 -0.0034016024 0.0006003102
-0.00020839299 -0.001292136 -0.000250623 -0.0021767158 -0.007513777 -0.0027236645 -0.0058831484 -0.0022607795
-0.0017326244 -1.833731e-05 -0.0010013954 0.0022601653 -0.010602049 -0.0019388152 -0.00013438294 -0.0012049484
-4.2031434e-06 0.0008744858 0.00010029839 -0.0003151436 -7.725262e-05 0.0005664403 1.1006489e-05 -2.3193503e-05
-0.0043769134 -0.01679151 -0.0036564805 -0.006914737 0.00021533824 -0.003969297 0.0017696372 -0.0010737386
0.00012154512 -0.00038530125 0.0008067179 -0.0008962803 0.0013921726 -0.0011665163 0.00027534252 -3.7220863e-05
-0.002988567 -0.00019797681 0.0034935279 -7.568231e-05 -0.0002706863 -0.0019479749 -0.001702006 -5.52122e-05
0.00032473076 8.985613e-05 -0.00012960045 0.005680235 -0.0031710519 -0.006224243 -0.002010539 -0.005721478
-0.0045526107 -0.00020950932 -0.0014417309 -0.00024097362 -0.002083382 -0.00025746718 -0.005637393 -0.0007090762
-4.4924935e-05 -1.36831095e-05 -0.00028235363 -8.6240674e-05 0.0006997014 -0.0008045778 -0.0009535065 -9.7554504e-05
-0.0020446987 5.4205233e-05 -0.005074158 -0.0031195248 -0.0005571115 -0.0068463413 -0.0052514495 -0.00019485372
-7.889099e-05 -0.00046275777 -0.008776279 -0.001077898 0.00020546722 0.0035619056 2.092179e-05 0.00026098386
-0.00010233366 -0.009383575 -0.0001488866 -0.0011203961 0.00028502342 -0.0040831827 0.002338681 0.00079250627
-0.00035722274 -0.00077112985 -0.00075416744 0.0014505719 -0.0054362905 -0.0016304174 -0.0008021794 -5.893957e-05
-0.0019107364 -0.0014439025 -7.565003e-05 -0.0002197845 0.00027245618 0.000293095 -0.003308641 4.00636e-05
-0.0004522164 -0.0061447145 -0.002257261 4.853975e-05 -0.0002841876 -0.0013376122 -0.0050888797 -0.0057286797
-0.0002048197 -0.00015840089 -0.0028737527 -0.0013121535 -0.0014315315 -0.002178188 0.0004827847 0.00013247789
-0.0023698998 -5.2591164e-05 -0.0032488515 -0.0023865036 -5.513788e-05 0.0016345644 -1.7900858e-05 0.002598136
-0.0011184189 0.0028685678 -0.01362918 -0.00018146772 0.00079244876 -0.007838076 -0.0029922707 0.0020269286
-8.69517e-06 5.345608e-05 -0.0015006863 8.301925e-05 0.00072132086 0.0061878036 -5.470556e-05 -0.0039352453
2.9856074e-06 -0.0069656232 -0.0003902615 -0.0041433945 5.7924975e-05 0.00063971884 -0.00032093455 -0.0019678988
-0.0004991452 -0.002269161 -0.0018961219 -0.00065745425 -0.00013450549 -0.013840382 0.0023778628 -0.0031689536
-0.00036979222 -0.01246187 -0.00954546 -0.00021966145 0.00078479777 -0.00043883457 -0.0050661005 -0.00021663228
0.002218046 0.00041585826 -0.000546899 -0.004340052 -0.0061908998 -0.0006297797 0.0011901762 -0.00030122924
-0.00010470353 -0.0032776634 -0.00091223133 0.0039984835 0.0004478009 -8.2834806e-05 -5.7655303e-05 0.0035381063
-0.0011479739 -0.0015316921 0.000117291704 0.0010071901 -0.00157769 0.0011306212 0.0017051707 -0.0037029297
0.0005702991 -0.00940338 0.00044201312 -0.0017511714 0.0039237756 -0.00020195424 -0.00097383815 -2.9843497e-05
-0.006843499 -0.0004036972 -0.006353734 0.0013467268 0.004003317 -0.005292471 -0.00012335317 -3.8189184e-05
