assets/MADDPG.pth (torch_old, 347866 bytes, 11 tensors)

layers.0.weight f4 [256, 24]
00000000: bffb 193f 8ad3 303e 850f 0c3e 82d4 1ebd
00000010: e980 36bd e4f1 39be 8507 8f3d b5c8 f1b8
00000020: 79a5 323e 0621 8a3e 817e 063d a067 a5bc
00000030: f337 41be dd64 39be 614f 3bbe 2dc5 0f3d
00000040: b7d5 e03c 08c9 0fbe e058 6e3c 4e9b 28be
00000050: d292 94be 6ee1 24be d993 8f3c f2c5 c9bd
00000060: a1b2 25be 0cbd b53c 7710 d63d 4789 4ebe
00000070: 420d bbbd a163 bebd c3c1 6fbc f405 c9bd
00000080: d360 7dbe 32eb 27bc fe2f f23d af8d 8fbd
00000090: b41e ecbd 2941 82be 4caa c7bd 7dde 43bd
000000a0: 3d38 c4bd 5bbe 76be ee9c 18be 30c8 77bd
000000b0: 6985 713e 7b89 0abf cd4c 94bd 13ac a13c
000000c0: d818 d5bd 3801 943d f4d3 d1bd af79 ef3d
000000d0: db4e ba3e 5580 093e de32 ed3d 5058 773c
000000e0: 1f12 3a3e 0291 493d f75f 2ebe ea7d febd
000000f0: af8c af3d d5a3 333e 45ff 273e 7844 373e
00000100: aa15 4f3e 5feb 0d3e e14f 013d b710 4bbd
00000110: 7730 ff3d 6598 603e b16e 3cbd 427c 603e
00000120: b397 fe3d cdf0 c7be cb97 4abc b6ba 4abc
00000130: 3f90 ca3c 9512 17bb 668a 0f3d 8611 c1bb
00000140: 14d8 843d 6666 b9be 861f cfbd 901d d0bd
00000150: 2dcd 97be 6818 3bbe 7b27 3c3d c355 4e3d
00000160: 84ec 183d ddb6 0dbf 84c4 c7bd 9104 e83d
00000170: 043d b5be fe0c 5c3e a1f9 013e aad5 3b3e
00000180: d4f8 8d3e f074 45be e8f2 68bc b16f f4bd
00000190: 5750 6e3d 4517 60be bb1c 203e 196a 52be
000001a0: 79d1 613e 6737 39be 79f2 7c3d 8fcd 74be
000001b0: 9400 f43a 5040 c9bd e4a1 26bd 3c23 0a3c
000001c0: b1c0 4d3e 9945 513c 07b9 4ebe 21c7 a7be
000001d0: 83b0 38be 180e 1b3e b0bc 48bd 55de 21be
000001e0: c4dc 7e3e 56ac 543e 1193 2bbd a4b7 b0bc
000001f0: a5e7 d9bd e15f db3d 8249 e2bd 53f4 813e
00000200: 0d53 113d 710a b03a 485f 07be 17f7 d2ba
00000210: 2456 d9bd fdee aa3d 8233 903b 67bd 953e
00000220: e31f ea3d 54cb 663e 9197 cb3d 2fae 403e
00000230: 4302 6f3e b20e 1abe c71b 0abd 7370 363d
00000240: 462a 893e 460a aa3e d9f2 4fbe 535b 573d
00000250: 725a 263e 5f66 9fbd f513 d03d 1204 de3c
00000260: 810c d33c 6fff 343e 8867 253e 6c42 213e
00000270: 51ce 38be e007 6cbd 88a5 af3d 7ced 873e
00000280: 5a28 62bc 8f92 803e 2cf5 82bc ee43 cabd
00000290: 2f24 d7bd fa30 33be a305 09be fa73 003e
000002a0: df23 cf3d fc90 293e eb15 163d 3df1 3cbe
000002b0: e665 0e3e 7e15 ba3e 4cfe 21bd e8db d7bc
000002c0: 014f d03d c57a cbbd cdac 2d3d ffa6 1bbe
000002d0: d464 80be 5243 773d c7da ff3d 2a59 07be
000002e0: 112f 2e3e c68c e5bd 5808 58ba a7f7 14bd
000002f0: 76ae a5be 71dc 513e e8f3 aa3d cf02 4ebd
00000300: 32dd 553e 70de 513e 4554 2ebd 27e1 e6bd
00000310: dc72 5b3d e26d 1f3e 7903 673d d354 4e3e
00000320: 7336 de3d 7eab 1ebc 1426 22bd c319 3e3e
00000330: ad4c 803e cafa 363e a265 1b3d 9be2 803b
00000340: ca90 b63c c1cb 1bbd fc11 a33c 19b2 183e
00000350: 6639 c33d 5525 65bd 6f4e 7abc cf07 3d3e
00000360: 3f1f 4139 8fba 323e c858 713d d6c1 c33d
00000370: 36fb 34be d0be 88be 6f4f a0bd 6c03 3abd
00000380: 5b5c c0bc 58aa c23e f77b 413d baf6 183d
00000390: 4b37 77be dd86 e6be 524b edbc de4b 483d
000003a0: a94d ab3d cf8b fc3d 0b54 23be 8923 1bbe
000003b0: cc7d 3fbd 2662 23bf 4b0e 673e 5308 023d
000003c0: c1d9 5d3e 8190 b0be 82b9 8bbd c9c9 9f3d
000003d0: 0aa1 3c3d 285c 273e c8f4 7a3d 21fb 81bd
000003e0: b257 e2bd 7989 c8be 1acc 00bd 6b47 bfbc
000003f0: fab8 95be b2f2 d33e 197c 7d3d 32d2 2fbd
0.6014976 0.17268196 0.13677795 -0.038776882 -0.044556532 -0.1815868 0.06983856 -0.0001152916
0.17445935 0.2697832 0.032835487 -0.020191014 -0.18868999 -0.18104883 -0.18292 0.03510015
0.027445657 -0.14041531 0.014547557 -0.16465494 -0.29018265 -0.1610162 0.017526554 -0.09852208
-0.16181423 0.022184871 0.10452359 -0.20169555 -0.09133388 -0.092963465 -0.014633599 -0.098155886
-0.24743967 -0.010248946 0.1182556 -0.07009446 -0.11529294 -0.25440338 -0.097492784 -0.047819603
-0.09581039 -0.24096052 -0.14903614 -0.060493648 0.23586048 -0.5411603 -0.07241211 0.019735372
-0.10405129 0.07226795 -0.10245505 0.11693131 0.36388287 0.13427861 0.11581968 0.015096739
0.18170975 0.049210556 -0.17028795 -0.1242636 0.08571755 0.17542966 0.16405971 0.17897213
0.20223108 0.13859318 0.03157032 -0.049576487 0.12460416 0.21933134 -0.046004 0.219224
0.12431278 -0.39050904 -0.012365292 -0.012373617 0.024726985 -0.0023051847 0.035044096 -0.0058919815
0.06486526 -0.36210936 -0.101134345 -0.101618886 -0.29648724 -0.18271029 0.04593609 0.050374757
0.037334934 -0.5535715 -0.09754279 0.11328996 -0.35398114 0.21489331 0.12692882 0.18343225
0.27728903 -0.1928289 -0.01421807 -0.11935366 0.058182087 -0.21883877 0.1563596 -0.20548286
0.22052564 -0.1808754 0.061754677 -0.2390654 0.0018615895 -0.0982672 -0.040681735 0.008431252
0.20093037 0.012772941 -0.2018777 -0.3276911 -0.18036084 0.15142095 -0.04900807 -0.15807469
0.24888903 0.20768866 -0.0418883 -0.021571942 -0.10639886 0.10711647 -0.11049177 0.25381717
0.035479594 0.0013430846 -0.1321994 -0.0016095367 -0.10612133 0.08346365 0.0044006715 0.29246065
0.11431863 0.22538501 0.099410184 0.18816446 0.23340707 -0.15044668 -0.033717897 0.044540834
0.26790065 0.33210963 -0.20307483 0.052577328 0.1624544 -0.077831976 0.101600565 0.02710155
0.025762798 0.17675565 0.16152775 0.15747994 -0.18047453 -0.057624698 0.085764945 0.26548374
-0.013803566 0.25111815 -0.015986048 -0.09876238 -0.10504948 -0.17499152 -0.13381056 0.12544242
0.10114264 0.16559213 0.036641996 -0.184514 0.13906059 0.36344522 -0.039549157 -0.026349977
0.10171319 -0.09935526 0.042401124 -0.15200423 -0.25076926 0.060366936 0.124929 -0.13217607
0.17010142 -0.11208491 -0.00082409894 -0.036368992 -0.32359666 0.20494248 0.08347303 -0.050295647
0.2088516 0.2049501 -0.042560834 -0.11273413 0.053576335 0.1556926 0.056399796 0.20149545
0.10850229 -0.009684442 -0.039587095 0.18564515 0.250585 0.17869106 0.03793872 0.0039332635
0.022285838 -0.03803611 0.019906037 0.14911689 0.09532432 -0.055943806 -0.015277489 0.1846001
0.00018417554 0.17453979 0.05892256 0.09558456 -0.17673954 -0.26708078 -0.07827651 -0.04541342
-0.023481539 0.38020587 0.047237363 0.03734467 -0.24142186 -0.45024768 -0.02896658 0.048900478
0.08364422 0.12331354 -0.15950029 -0.15150274 -0.04675083 -0.6382164 0.22564046 0.03174622
0.21665098 -0.34485248 -0.06822492 0.07802159 0.046052016 0.16343749 0.061268598 -0.06346727
-0.11051883 -0.39167383 -0.031444646 -0.023349484 -0.29242688 0.413961 0.061885927 -0.042925067

layers.0.bias f4 [256]
00000000: 5a94 fdbd c815 743e 0b4a 653d 168f a5be
00000010: 3ca7 66bc 00ee d13a bcb7 883e c96f 2f3e
00000020: b9ea a83d 20c0 393d 8dda 2bbe 43f3 313e
00000030: 9a32 36be 5d2f e73d 1232 dcbd a2c6 843e
00000040: cc06 ae3e f503 18bd b2dd de3c ad21 a2bd
00000050: 749a 4c3e 7b0b 04bd aa86 0cbc ef54 47be
00000060: 2ef1 82be 7c19 613c 2a44 32ba 0278 373e
00000070: c2cc 29be f121 a9be fb63 8dbe 323b d8bd
00000080: cc66 0dbc 1edd aabc d06c b63d 9348 35be
00000090: 78bc dd3c 570e 66be f194 19be 019f 803d
000000a0: fc43 82be aa08 a7bc c08d c8bc 70fb 54bd
000000b0: 1d2d 1b3e f60f 533e c6f6 0f3e 2f5b 3ebe
000000c0: cf26 573d b290 d03c dfc2 4b3d 9bb1 b4bd
000000d0: d4c7 6c39 eec9 143d 959c 28be 6996 88be
000000e0: 9a50 b9bd d7e0 8a3d 81fa 8d3d ff1a f9bd
000000f0: 9914 5e3e 11d5 883c c6ea c7bd b599 d6bd
00000100: 4a6a 803e 2dad 05be b4db 48bd e3a7 043e
00000110: af4d 3dbe 5d34 ce3d ea59 2e3e 16a6 09be
00000120: 48e2 173e dc48 babd 77bc a8bd de89 af3d
00000130: 0218 2abe 9317 6fbe 0738 adbd e38a 1f3e
00000140: 2d13 07bd 24ed 86be 0b2f 543e fe75 0b3e
00000150: 3744 59bd bd31 a33d bf13 fb3d 93bf 6fbe
00000160: 320a 093e 3b11 813d eece 7bbe 9987 34be
00000170: 47d5 5bbe 86e7 6d3e fbee 2abe 1df2 583e
00000180: 725c a4bd 140e 49be 2978 093d 8868 d4bc
00000190: 5271 943e 397b 823e e429 933d 76d7 073d
000001a0: d011 c839 ce04 4c3e dbf7 503e dde4 00be
000001b0: d694 f8bc 5675 3c3d 97c2 b63d e0d8 70be
000001c0: a7fc d2bd e9be 1e3e e174 c7bd d673 6ebd
000001d0: a05f 183e d357 b6bc 3c46 61bd f3ee 13be
000001e0: 0183 2ebc 1f00 8b3d 3f8b e23d 3142 38be
000001f0: 8ad1 9dbd 1116 173e 1636 5f3c 41b2 d33d
00000200: 69da 52bc 843d 453d eea3 63bd bf93 74be
00000210: f127 efbc 515c 103d d36c 793e e375 5c3e
00000220: be89 173e 9715 643e 6997 7fbe 146d f2bd
00000230: 4822 20be 1df1 41be bbd1 15be 2af3 b43d
00000240: 8291 84be f191 37be 67a0 e63c e6db 863e
00000250: 300c 823d 9c10 233d 53af fbbc 9aec 0a3d
00000260: 2fb5 8a3d 82db 983e cfae b93e 9329 c7bd
00000270: 8c77 d73c 3381 683e bd31 653e ef9f 823e
00000280: 9e87 4d3c 9646 2abe 85bf a73d 75ed a8be
00000290: 6bad ba3d 9146 2f3b 78b0 2c3e 84f0 58bd
000002a0: a3ce 8e3c db09 b3be 3b7b 1b3e 615b a6bd
000002b0: 03bc 183e 723b 563e 4bc1 c53c 0690 ce3d
000002c0: 1a3b 26bd 2442 7ebe 2a3a acbd 2210 c23c
000002d0: 33cc d6bd 3404 373e f790 bdbd 3899 dcbc
000002e0: 7d0d 10bd 2ddc 23be 6afe 74be fd64 81be
000002f0: 29fd 5dbd e709 abbc 846c 1abe 35f0 223e
00000300: 98dc 2dbd 86ef 383e 9ae0 bd3d c1f0 dabd
00000310: e047 a9bd 981a 623d 5a97 d43d 8ea0 92bd
00000320: 0376 6cbd 6f81 583d 1e12 403e c248 db3d
00000330: 98c1 62be 5072 07be 0438 13be 3613 373e
00000340: 2110 66bd 9547 833e ef7c 3bbe dfc1 3fbc
00000350: c6ee 6fbe 4a4d fabd 70d5 aebe 6976 2abe
00000360: 06aa f6bb 6017 a6bd 11c8 35be d789 2bbd
00000370: 579f 5d3d af46 33bc 5de1 593d e6a1 9c3d
00000380: 2163 72be 314b 51be cfd7 023d 2ca2 1d3d
00000390: 93a7 773d a20f 993d 9f3c fa3b 7b56 a7bd
000003a0: 773c 243e 80c9 013e 9e3c 563e 5ea8 8f3d
000003b0: 8a05 88be 66de 6c3e 46fc 3c3d 0d75 a13d
000003c0: 9479 87be d160 2c3e a1d6 84bc ef30 a7be
000003d0: c665 573e de14 1cbe deac e3bd a1bc 9dbd
000003e0: 0d11 73be 4e27 41be f825 843e b76c 103d
000003f0: dfd9 763d 20d8 0dbe 2af3 48be 709b 5f3e
-0.123818114 0.23836434 0.055978816 -0.32335728 -0.014077958 0.0016016364 0.26702678 0.17132486
0.08247895 0.04534924 -0.1678259 0.17377953 -0.1779274 0.11288331 -0.10751738 0.25932795
0.3398956 -0.03711315 0.027205322 -0.079165794 0.19980794 -0.03223751 -0.008577028 -0.19465993
-0.2557463 0.013738986 -0.00068003184 0.17916873 -0.16582015 -0.33033708 -0.27615342 -0.105581656
-0.008630466 -0.02085739 0.08907473 -0.17703466 0.027067408 -0.22466408 -0.14998223 0.062803276
-0.25442493 -0.020389874 -0.024481654 -0.051997602 0.15153928 0.20611557 0.1405898 -0.18589471
0.052527245 0.025459621 0.04974639 -0.08822938 0.00022581156 0.036325388 -0.16465981 -0.26677254
-0.09048577 0.06781166 0.069325455 -0.12163352 0.21687545 0.01670316 -0.09761576 -0.10478536
0.25081092 -0.13054343 -0.04903765 0.12954669 -0.18486665 0.10068581 0.17026487 -0.13442263
0.14832413 -0.09095928 -0.08239072 0.08571218 -0.16610721 -0.23348837 -0.08457952 0.15580325
-0.03297727 -0.263528 0.2072107 0.13619229 -0.05304357 0.07968471 0.12259626 -0.23412924
0.13382795 0.063021146 -0.24590656 -0.17629851 -0.21468078 0.2323285 -0.16692726 0.21186109
-0.08025445 -0.19634277 0.03356186 -0.02592875 0.28992707 0.25484636 0.071857244 0.033164464
0.00038160244 0.19923708 0.2040705 -0.12587304 -0.030344408 0.046010338 0.08923834 -0.23520231
-0.10302096 0.15502514 -0.0973909 -0.05821594 0.14880228 -0.022258675 -0.05499862 -0.1444662
-0.010651351 0.067871325 0.11061715 -0.17994 -0.07705982 0.14754511 0.013623735 0.103367336
-0.012869456 0.04815437 -0.055576257 -0.23884486 -0.02919385 0.03524429 0.2435792 0.21529345
0.14798638 0.22273861 -0.24960102 -0.11837211 -0.15638077 -0.18939634 -0.14630787 0.08835442
-0.25892264 -0.17926766 0.028152658 0.26339644 0.06349981 0.03981076 -0.03072325 0.033917047
0.06772839 0.2985497 0.3626618 -0.097247265 0.026302122 0.22705536 0.22382255 0.25512645
0.012544541 -0.16628489 0.08190826 -0.32993665 0.09115108 0.0026744942 0.16864192 -0.05296375
0.017432516 -0.34968457 0.15183727 -0.08122898 0.14915471 0.20921114 0.02414002 0.10086064
-0.040583707 -0.24829918 -0.084095314 0.023689333 -0.10488167 0.17872697 -0.092561655 -0.02692853
-0.035169113 -0.16001959 -0.23925176 -0.2527236 -0.05419651 -0.020878745 -0.15080458 0.15911944
-0.042446703 0.18060121 0.09271355 -0.106904514 -0.08265662 0.055201143 0.103804305 -0.071595296
-0.057729732 0.052857812 0.18756911 0.10707237 -0.22144163 -0.132272 -0.14376837 0.17878422
-0.056167725 0.2564055 -0.18309377 -0.011703937 -0.23430929 -0.12221773 -0.34147215 -0.16646732
-0.0075275926 -0.08109927 -0.177521 -0.0418795 0.054107036 -0.010942145 0.05319344 0.07648067
-0.23670627 -0.2043884 0.031944092 0.038484737 0.060462546 0.07473685 0.007636621 -0.08170792
0.1603869 0.12674522 0.20921561 0.07014535 -0.26566726 0.23131713 0.046139024 0.07883654
-0.26459944 0.16833808 -0.016215624 -0.3265452 0.21034917 -0.15242335 -0.11116956 -0.07701994
-0.23736973 -0.1886265 0.25810218 0.03525993 0.06026637 -0.13851976 -0.1962401 0.21836638

layers.2.weight f4 [128, 256]
00000000: 933d 89bc 4cd5 2b3d 7d2f 74be a1b4 bd3c
00000010: b2e0 d4bc 533f 123d e567 31bd 6762 303c
00000020: 27e9 b5bd 5434 503c 828f 69bc cfa0 04bd
00000030: 1ede 49bd d724 45bd a3fc 143d ace3 0ebd
00000040: 274e 953c 6abb 4d3d 368f 74be 71ef 8ebc
00000050: 5ba6 cd3c fa41 203e 9b00 143d 54d6 c9bd
00000060: 7e52 3cbd c206 0b3d c19d f63d 0c30 cebc
00000070: 93b7 983c fc64 473d 4072 bcbd 868e 08bd
00000080: 9290 84bc f6d3 413e fadd be3c fc95 babc
00000090: 825d 123d c496 123e e382 b53c 7c82 293e
000000a0: 71fd bfbc d358 103d e938 80ba cdba 933d
000000b0: 5884 04bd fafe d93b 642c 203d dc7a 0f3c
000000c0: 0989 9d3d 2155 273e 1a4e e83d 275c 6bbe
000000d0: 50d9 c03c 331a e03c 736e 88bc 6e0d 43bd
000000e0: c039 a0bd fcfe 493d 2983 3a3d 324a 2c3e
000000f0: 87fb 5bbd 395e 933c 0d39 b23d 770c d13a
00000100: cc1b 4a3c 5303 8fbd ba6e 0abb 0a5f 87bc
00000110: a5bb cc3b e754 4cbd 8a41 5fbd 633d 6f3d
00000120: ce79 663c 4a92 c9bd a388 40bc 71d4 98bc
00000130: d1b7 9d3c 4c93 97bc 8e62 633b 294b 173e
00000140: ff73 a03c c553 aebd 7b40 203d 9d04 603e
00000150: c61c 4cbd 4fdd 063e 06a0 b93d e09d 93bd
00000160: e82a 86bd fe41 0cbd d5cd cdbd 1d93 8ebd
00000170: a775 443c 31d5 053d b989 ccbd 8977 453d
00000180: aecb 69bd 25ea 2b3e d0bb 3c3d abc4 e6bd
00000190: bd76 4f3c 863d 273d 6134 67bc f30c 20be
000001a0: eb11 1d3e a271 19bd ab8c af3c 2bc0 a3bd
000001b0: 990d 123c 241b 1ebc 305c a7bd b7bd c1bc
000001c0: 6153 8bbe c185 ffbc 9057 863c 97a3 0b3c
000001d0: 2569 b03d 4687 18be 093c 46be 22ce b4bd
000001e0: c628 ac3c b8f0 28be ed2f fd3d c98f 7abd
000001f0: 1e8b adbd 4223 293d 88c7 0e3e 6b18 c6bc
00000200: fc4e c33d 5709 27bd 49b8 893d 85d0 fa3b
00000210: 98d6 0c3a b8ea 063d 376f b1bd a43c e63d
00000220: 6de5 ccbd 4e49 633c 3962 26be c1b8 6a3d
00000230: 115b 11be 9b06 243d 6ffb 44bd 1e09 5c3b
00000240: d3c3 c63c 4dcc 25be 6cf1 743d f447 f1bc
00000250: d6aa 243c abb1 bcbe 8d24 99bd 17ed efbc
00000260: 8c36 cebd 0995 e93d 5fa2 643d 7d70 acbd
00000270: ba94 1dbe afd6 07bd b19c 123e 011c 393d
00000280: 5c37 1f3d 0152 3e3b 0acf e73c b305 06be
00000290: dcb9 ad3d 7efc c73c d22d f3bd a58f 28be
000002a0: e786 8ebe 0101 d1bd 92ec ccbb bb32 633c
000002b0: f84c babe dc6b 42bd 3f47 70bc 637a ddbd
000002c0: cb15 e0bd 3f4a 16be 209b 69bd 73ae 683d
000002d0: 6b8d 8e3d 734c aa3b 2683 93bc d0b8 d13d
000002e0: 0bdb c1bc b80a 693d e53d 023d 41f8 933d
000002f0: ff3c f3bc c5a3 df3b c546 7dbd 7bcf 563c
00000300: 7f16 86bc 9d0e 8a3d 17b3 bc3d f331 bfbc
00000310: 56cf 64bd ec07 4abc 0385 8bbd e42b b73c
00000320: a71a 66bd e21b 963d 18d0 0fbe 8db7 7bbd
00000330: 03d6 efbd d964 0a3e 6ded b2bd ca2f 6ebd
00000340: df45 dd3d b856 cc3d 98b7 92bb a7d0 0a3d
00000350: a0ac 7fbd 1774 ff3d d165 10be b9b2 0cbd
00000360: 4e26 72bc feed e2bc 5c9e 27be acbf 9abd
00000370: 4cfb d7bc 932c 18be 2baa c63c d9e0 b4bd
00000380: e849 a23d 3665 49bc 674d 0ebe 351a c3bd
00000390: f5e0 283c 7bd4 82bd a8fd 033a 06ce 39bd
000003a0: cfa9 73bd bea5 c5bc 9497 fa3d 3618 a8bd
000003b0: b99d 863d 3270 a1bd 71bb 35be 345c 8e3d
000003c0: 8a64 4abd d6e3 5cbd 0582 193e 19a1 3a3c
000003d0: 5547 82bd 35ca 1fbd cc1e 3cbe 7c64 673c
000003e0: ea2a 633d e8c1 8cbd 5b83 7a3d e485 cf3d
000003f0: 3ca0 d2bc 3656 ad3d 606e ea3b ce24 d7bd
-0.016752994 0.041951463 -0.2384624 0.02315742 -0.02598605 0.035704922 -0.043311972 0.010765648
-0.08882361 0.0127077885 -0.014255406 -0.03237992 -0.049284093 -0.048130836 0.036373746 -0.034885094
0.018225743 0.05022756 -0.23882756 -0.017448159 0.025103739 0.15650168 0.03613339 -0.09855333
-0.04597711 0.03394199 0.12041808 -0.025169395 0.018642223 0.04868029 -0.09201479 -0.033339046
-0.016182218 0.18928513 0.023299206 -0.022776596 0.035733707 0.14315325 0.022157138 0.16553682
-0.02343628 0.03524096 -0.0009782586 0.07213364 -0.032352775 0.00665271 0.039104834 0.008757319
0.07692153 0.16341068 0.11343022 -0.22984372 0.023541123 0.027356243 -0.016654229 -0.04762023
-0.07823515 0.049315438 0.04553524 0.16825178 -0.053706672 0.017989265 0.08702288 0.0015949149
0.012335729 -0.06983056 -0.0021123127 -0.01652481 0.006247955 -0.049885657 -0.054505862 0.058408152
0.014067126 -0.098423555 -0.011751327 -0.018655987 0.01925269 -0.018502854 0.0034696194 0.14774765
0.019586561 -0.085120715 0.039123993 0.2187676 -0.049832128 0.1317036 0.09063725 -0.07207847
-0.065511525 -0.034242623 -0.10049025 -0.069616534 0.011990941 0.03267402 -0.09987206 0.0482097
-0.05707901 0.16788538 0.04607755 -0.1126798 0.012662587 0.040830158 -0.014111609 -0.1562994
0.15338866 -0.037461884 0.02142938 -0.079956375 0.008914375 -0.0096500255 -0.0817188 -0.023650033
-0.2721205 -0.031191709 0.016399175 0.00852289 0.08613805 -0.14895353 -0.19358839 -0.08828379
0.021015536 -0.16498077 0.12362657 -0.06117228 -0.084738 0.04129339 0.13943303 -0.024181565
0.095365494 -0.04078039 0.06724603 0.007654252 0.0005372553 0.03293869 -0.08663791 0.11242035
-0.10004697 0.013872458 -0.16248406 0.0573051 -0.14194895 0.040045362 -0.04809135 0.003357477
0.024263298 -0.16191216 0.05980055 -0.029453255 0.010050496 -0.368543 -0.07477675 -0.029287858
-0.10068998 0.11405379 0.05581891 -0.08419893 -0.15388766 -0.033163723 0.14317586 0.045192722
0.038871154 0.0029040577 0.028296966 -0.13088112 0.084827155 0.02441239 -0.11873974 -0.16461046
-0.27837297 -0.102052696 -0.0062537873 0.013867076 -0.36386847 -0.047466144 -0.014665424 -0.10814359
-0.10941657 -0.1467676 -0.057032704 0.056806993 0.06960567 0.0051971017 -0.018006872 0.10240328
-0.023664018 0.056894988 0.03179731 0.07225085 -0.029692171 0.006824943 -0.06183507 0.013110991
-0.016368149 0.067410685 0.09213846 -0.023339247 -0.055861793 -0.01233099 -0.06812479 0.022359796
-0.05617776 0.07329537 -0.14044225 -0.061454345 -0.11710741 0.13515033 -0.087366916 -0.058151044
0.108043425 0.09977478 -0.0044774525 0.033890393 -0.062420487 0.12473314 -0.1410134 -0.03435013
-0.01477964 -0.027701374 -0.16369003 -0.0755609 -0.026364945 -0.14860754 0.024251064 -0.08831949
0.07924253 -0.012292197 -0.13896714 -0.09526483 0.01030754 -0.06388184 0.0005035051 -0.045362495
-0.059488114 -0.024126884 0.122359425 -0.08207743 0.06573052 -0.07882728 -0.17747284 0.0695118
-0.049412288 -0.05392822 0.14991005 0.011390948 -0.06361262 -0.0390112 -0.18371123 0.014123078
0.055460848 -0.06872922 0.061160427 0.101329595 -0.025711171 0.08463709 0.007154271 -0.10505067

layers.2.bias f4 [128]
00000000: 8adc 9a3d f7b5 cb3d ec72 46bc a12e 793d
00000010: c402 963b 2a04 1f3e aab2 c83d b75c da3c
00000020: e676 343c 6f7d 4f3d d2b8 903d 95fc ca3d
00000030: ba3f 4c3d af4a dfbc b28d 11bd 5c68 5e3d
00000040: 4743 2b3c 22b7 9d3c 563f 003d f695 1fbd
00000050: f7cb 9ebe f18a 6c3d 1f35 c73d bded 663d
00000060: 6869 493d 1b01 6d3d fc12 9e3c 8874 ec3d
00000070: 4bc9 9d3d fb48 2a3c 1e1b 54bd c816 b93c
00000080: bdd9 eebc 6ca3 53bd c28a a8bb 2415 41bd
00000090: 4794 fbbc a149 90bc c8a2 5a3d c822 a63d
000000a0: ddbe 4a3e be42 793c 580b 1f3c 5f61 4abd
000000b0: 6311 40bd dfda 0d3d 42f4 6fbd 181f 593b
000000c0: 7f4d 483d 2c3d ed3c c8e1 733d ca7b 1dbc
000000d0: 309f 093e f1d5 b93c 052c 9dbc 6d15 813c
000000e0: a303 ce3d b5b5 3fbd cf0c 593d a2ce 263c
000000f0: c3c8 4f3d bdc4 923d 1ff2 f2bb 7615 db3d
00000100: 3568 7cbd cf08 57bd 8274 803d db4e 533c
00000110: 9f2e c7bb 783d be3c 7a6c 493d d81f 413c
00000120: 76e6 cd3d 45a8 93bb 8fe0 613d cf20 813d
00000130: f4d7 0b3e 16f1 fa3d b052 68bd 8761 adbc
00000140: f19d 0e3d 8e48 8a3d ebfb a6bc 68bc e33d
00000150: e797 e9bc c076 54bd 4baa 5d3c d694 e13c
00000160: e0c7 30bb fbbd b93c 9d0d 023a ecda ff3d
00000170: 40b4 4ebe 88fa 4fb9 54a3 5e3d 7a64 343d
00000180: 86d8 50bd 6b21 bf3d 765f 1dbd 9cff 123d
00000190: fbfe 00be 0e83 35bd 5df5 42ba c5cf 01bb
000001a0: 49a1 bb3d 95c2 82bd 1451 513e 5dac 0abc
000001b0: 82c5 803b d0d8 6bbd 73b8 2e3d 7ea8 c83d
000001c0: f352 8e3c ff24 0abe 7a23 4dbc 00e9 893d
000001d0: f293 923b 599b 0fbe 8596 8f3c 2eb0 be3d
000001e0: 2ca2 55bd 57ed 4c3d c79a 973d fd11 2e3d
000001f0: 89b4 adbd d8fb f63d 5f3b 5c3c b7ca 513d
0.07561596 0.099468164 -0.01211236 0.060835484 0.0045779664 0.15528932 0.097997025 0.026655538
0.011014676 0.050656732 0.07066502 0.099114574 0.049865462 -0.027257292 -0.03553552 0.054298744
0.010453052 0.019252364 0.0313104 -0.038961373 -0.31014988 0.057749692 0.09726929 0.05637907
0.04917279 0.057862382 0.019296162 0.11545664 0.07704409 0.010393376 -0.051783673 0.02259387
-0.02915656 -0.051669523 -0.0051434943 -0.047139302 -0.030710353 -0.017613234 0.053377897 0.08112103
0.19799371 0.0152136665 0.009707294 -0.049409267 -0.04689158 0.03463256 -0.05858255 0.0033130106
0.04890203 0.028959833 0.059541494 -0.009612033 0.13439631 0.022685023 -0.01918603 0.015757287
0.100592874 -0.04680415 0.05299073 0.010181101 0.05072857 0.07166431 -0.007414117 0.10697453
-0.061622817 -0.052498635 0.06272222 0.012897219 -0.0060785557 0.02322267 0.049175717 0.011787377
0.100537226 -0.0045061433 0.055145796 0.06305086 0.13656598 0.12253015 -0.056719482 -0.021164669
0.034818593 0.0675212 -0.020383796 0.1111992 -0.028514815 -0.05187106 0.013529371 0.02753679
-0.0026974604 0.022673598 0.0004961135 0.12492928 -0.20185947 -0.00019834389 0.05435498 0.044041134
-0.050987743 0.09332546 -0.038421117 0.0358883 -0.12597267 -0.044314437 -0.00074370747 -0.0019807678
0.09161622 -0.0638477 0.20441085 -0.008463946 0.0039297948 -0.057579815 0.042656373 0.09797762
0.017373538 -0.13490675 -0.012520665 0.06733894 0.004473203 -0.14024104 0.017527828 0.09310947
-0.052156612 0.050031032 0.07402568 0.042497624 -0.084817 0.12059754 0.01344189 0.051218715

layers.4.weight f4 [2, 128]
00000000: c368 2cbd 64a4 86bd e3ef 0ebb d21d e03e
00000010: 184d c23e 6c74 513c 80a1 6b3e f545 a0ba
00000020: 27e0 0a3b 5ee7 563a cadb de3d 4edb f63d
00000030: 842a 273e 9b8e 423a 43dc ea3a 91f1 f23a
00000040: 644f 153e 6310 e73d e8b3 933e 8229 c7ba
00000050: 1afb 093f 7958 903e 027e d03e 6d8e f13d
00000060: 6703 053d 0352 863c 10e8 9c3e 7c57 fa3c
00000070: 5786 ed3d 0bbd 363e 61e0 8e3e 1833 c2ba
00000080: 6ed9 59ba 617f fbba f5d7 bb3e ba06 8e3a
00000090: 38ae 93bd fd1f 82bd 9ddb 263b eeaf cb3d
000000a0: 4804 e3bd f1c0 023b fac8 c3ba 932a e1bb
000000b0: f095 f0ba fc32 27bd 5118 083e 5bf9 063f
000000c0: 95d8 813a eef6 e838 97c4 cb3d 24a2 0e3b
000000d0: a842 793e bebe cbba 87da 673d c132 9c3e
000000e0: f67f b2bd de2c c4be 5bbe 37ba 26e7 fbbc
000000f0: 55d0 593b a046 893e d058 dc3a 1e25 e9bd
00000100: 6a58 c539 1b21 a3b9 69a7 843d 2873 13bb
00000110: 74fe 1d3b 05ca b13e b00e 283a eec4 85ba
00000120: 6a80 693c 5c09 a53e 43bc 853b 42fa e33d
00000130: 1787 2a3c c1b6 ee3d 73d2 42ba 1eb6 bbba
00000140: 56ac 443a 921a 853e 8192 4cba 607e 7ebd
00000150: d92e 9e3a 5ef4 623b 2438 04bd 3eca f43b
00000160: 3382 3e3e 3bf4 843d 0185 c3ba b09c 193e
00000170: 770d 523c babe 67ba 5b0c 4cb8 ad46 c53d
00000180: 40b3 4638 0d94 fc3e bbaf 8b3e 01dd 2f3e
00000190: 0514 513e c324 2a3a 5cdf 663a 3db4 c63e
000001a0: 8f99 d0bc 80c6 8d3d e034 8dbd adfc 56ba
000001b0: 7631 753c 44e0 a73c 11a5 603b 5955 023d
000001c0: 038f b53a 5feb 9bbd 94e6 083e f8b1 2e3e
000001d0: f785 2f3b 1d57 8ebe ea24 1b3e 6276 a13d
000001e0: 8125 a4ba d5ee 073a c6f4 b53d 94c0 303d
000001f0: 12ae c1bd bafc 683d 0ea2 ed3d 8625 723b
00000200: 0646 f63e b9e5 b3be 9cab eaba a81c b1be
00000210: 73a7 043c d83f 04bf 1b90 4bbe ba81 27ba
00000220: 56fc f9b7 a723 a9b9 ec23 d73e baa5 8c3d
00000230: bcfc 383e ce6d 5aba 48c0 11bb a514 e6ba
00000240: 315c 66bd 6688 57be f3f8 9e3e 868c 7539
00000250: 3093 293f b622 9cbe aa20 8a3e f250 1dbe
00000260: 9db0 1d3f ba8e debe 5f29 afbe 1002 9ebe
00000270: e903 bebe 8efe ddbe 3ec2 a2be 19ba cd39
00000280: be60 91ba 4c6e 6cba 6ef7 7abe 88c4 48ba
00000290: a18c 353e f37d c9be c06d aeb9 eab7 a6be
000002a0: 8de4 2cbe 947c b0b9 b989 7d3a efc1 65bb
000002b0: 76f9 8f3a 8671 823b d41a 79bd babf ef3d
000002c0: de36 cdba b109 5bba 248c f63d 6ff5 a9ba
000002d0: f3a8 46be fa79 83b7 0f27 b13e 57ea 903b
000002e0: dcb4 c53b 352c 203e ed0f 15b9 3a01 393d
000002f0: 825e afba d315 5dbe dd01 60ba 6d16 51be
00000300: d805 63ba 6f18 b0bc 10e6 9c3c 24ce 6d39
00000310: b0de faba 7885 5fbe 4cbb bbba 4a2b aaba
00000320: a988 c4be fc33 32be 3639 d1ba 5cff c8be
00000330: 5268 9cbe bd0d cabe f133 deba df01 30ba
00000340: 7832 e439 1169 203e 2d06 8539 4802 77be
00000350: 5c86 d1b9 6d68 ce3b 8220 ec3d 4898 adbd
00000360: 438a 26bd ecc7 683e 5d5a 35b8 cf99 1dbd
00000370: b767 653e a442 b1ba a57e 15ba 085d c13c
00000380: 2a18 91ba 1bf2 6b3e 5a2f 38be e1e9 82be
00000390: 89b9 8e3e 4752 47bb ca78 12b9 a165 d0bc
000003a0: 1d3a 053f b009 7a3e 35bd 59be 6d1f 0dbb
000003b0: dd33 c53d 6288 0e3f 6184 b8ba f58e 073f
000003c0: d6e0 09bb a4cd 77bd 4ee0 4b3d bb60 a0bd
000003d0: 6b69 80ba 5e93 4fbe 9530 053d 8d07 a33e
000003e0: 5d55 f7ba dd4f ecb9 dc38 153f a0da 5dbe
000003f0: 5998 41be 97e6 f23d a50a b23c 6067 bfba
-0.042092096 -0.06574324 -0.0021810464 0.4377275 0.37949443 0.012784105 0.23010826 -0.001222788
0.0021190734 0.00081979285 0.10881765 0.12053548 0.16324812 0.00074217626 0.0017918426 0.0018535127
0.14581066 0.112824224 0.28848195 -0.0015194865 0.53898776 0.281925 0.40721136 0.11794744
0.032473948 0.016396528 0.306458 0.030559294 0.11597889 0.17845552 0.27905563 -0.0014816253
-0.00083102926 -0.0019187742 0.366882 0.0010835745 -0.07210964 -0.063537575 0.002546049 0.09945665
-0.11084801 0.0019951428 -0.0014937215 -0.0068715303 -0.0018355232 -0.040820107 0.13290526 0.52724236
0.0009906465 0.00011108616 0.09949606 0.0021764124 0.24341834 -0.0015544517 0.05660489 0.30507472
-0.08715813 -0.3831548 -0.0007009261 -0.030749869 0.0033235748 0.26811695 0.0016811136 -0.11384033
0.00037640642 -0.00031114448 0.064772435 -0.0022499058 0.0024107965 0.3472444 0.000641088 -0.0010205784
0.014251808 0.32233703 0.0040812804 0.11131717 0.0104081845 0.11655951 -0.0007431872 -0.0014321243
0.00075024867 0.25996834 -0.0007803813 -0.06213224 0.0012068405 0.0034630517 -0.032280102 0.007470398
0.18604355 0.06491896 -0.0014916958 0.15001178 0.012820593 -0.0008840371 -4.8648897e-05 0.09632621
4.737382e-05 0.49331704 0.2728251 0.1717415 0.20417793 0.0006490463 0.0008807087 0.38809386
-0.025463847 0.069226265 -0.06894851 -0.0008201104 0.014965406 0.02049268 0.0034278075 0.031819675
0.0013851825 -0.07613253 0.13369209 0.17060077 0.002678273 -0.27800837 0.151508 0.07883908
-0.0012523384 0.000518543 0.088845775 0.043152407 -0.094570294 0.056881644 0.11603175 0.0036948635
0.481003 -0.35136202 -0.0017903927 -0.34592175 0.008096564 -0.5165992 -0.1987919 -0.0006389875
-2.9800616e-05 -0.00032260755 0.42019594 0.06867547 0.1806516 -0.0008332402 -0.0022239853 -0.001755376
-0.056240264 -0.21048126 0.31049308 0.0002341737 0.66240215 -0.30495232 0.26978046 -0.1536291
0.61597615 -0.43468267 -0.3421125 -0.3086095 -0.37112358 -0.43358272 -0.3178882 0.000392393
-0.0011091453 -0.0009019121 -0.2450845 -0.000765868 0.17729427 -0.39353904 -0.00033269636 -0.3256219
-0.1688406 -0.00033662154 0.00096717064 -0.003505822 0.0010984379 0.003980818 -0.0608166 0.11706491
-0.001565661 -0.0008355631 0.120384485 -0.0012966822 -0.19400387 -1.5673217e-05 0.34600112 0.0044224667
0.006033523 0.15641864 -0.0001421568 0.045167185 -0.0013379606 -0.21590357 -0.00085451995 -0.20418711
-0.00086602336 -0.021496026 0.019152671 0.00022678875 -0.0019139852 -0.21828258 -0.0014322787 -0.0012982872
-0.38385513 -0.17402643 -0.0015962485 -0.39257324 -0.3054834 -0.39463606 -0.0016952736 -0.0006714146
0.0004352515 0.1566508 0.00025372338 -0.24121964 -0.00039963692 0.0062990696 0.11529638 -0.08476311
-0.0406592 0.22732514 -4.323792e-05 -0.03847676 0.22402845 -0.0013523889 -0.00057027704 0.023603931
-0.0011069824 0.23041575 -0.17986813 -0.2556906 0.27875927 -0.0030414031 -0.00013968642 -0.025439085
0.520418 0.24417758 -0.21263583 -0.0021533624 0.09629033 0.55676854 -0.0014077538 0.5295251
-0.0021038554 -0.06049885 0.04977446 -0.0783095 -0.0009797042 -0.2027106 0.032517035 0.31841698
-0.0018870045 -0.0004507293 0.58289886 -0.2166543 -0.18905772 0.11860388 0.021733591 -0.0014602952

layers.4.bias f4 [2]
00000000: 9c0b 8dbc 1273 ddbc
-0.01721745 -0.027032409

layers.0.weight f4 [256, 48]
00000000: 8d55 9d3c f338 8a3c 058b a43b b606 043c
00000010: fefb 9ebb c9f3 b9bb efe6 173c df04 ff3b
00000020: 1cc1 993c 1ba8 923c 1602 3c3b dc20 1e3c
00000030: 0e8e 003c 423b 9abc 1e0b 433b 3574 1f3c
00000040: e95c 3d3d ee39 943c e68d 9d3c 7c66 483b
00000050: 487e b7bb 52bc c2bc d10c abbc 5006 7d3b
00000060: 7cd3 203d 626c 793c a4ac a0bb 44af 593b
00000070: 4822 1a3a 59ef b9bb a1dc 943b e14a 423b
00000080: 8900 0e3d 501b 533c 2d82 d8bc ba31 f5bb
00000090: b782 1cbc 8f91 99bc 3491 c5bc 330f f4bb
000000a0: 652a 843c e686 2f3c c6e8 c03c 2c69 87bc
000000b0: f915 adba 6c03 c2bc 8afd 823c d3e3 82bc
000000c0: 96dc 303d ba75 2a3d 4fab d53b f6bc dabb
000000d0: 8bff 43bc e776 b93c 9510 743c c1bd bbbb
000000e0: c92b ef3c f445 3c3d 6985 c9b9 2a7b 073d
000000f0: b824 96bc ccf8 f9b9 ef3c aa3a 9635 093d
00000100: 2492 573d cb1d 433d 3134 003d ce2d d6bb
00000110: e50d 64bd 8bac 83bd 82d7 c33c fdb9 d9bb
00000120: d2e2 223d 4d43 aa3c 6be9 43bc 87e0 9bbb
00000130: c653 8c3c 63e1 b83c 91a7 89bc 32f3 8dbb
00000140: caba 393d cb07 d83c dbb9 e5bc 7de5 213b
00000150: d3cc 623c f64d e9b9 a3c9 e43c 57f1 313b
00000160: 324f 0f3d a36e c03c 3137 10bd ff17 c33b
00000170: 908f 4e3d f97f 83bd c81e d03c e2bc c93b
00000180: 1988 d03c 7c52 f23c ce55 aabc cde3 943c
00000190: 9cfc 313b cef4 6fbd 046d d33c 2f5a 983c
000001a0: 86e1 173d a305 f23c ece1 5d3c 569d 82bc
000001b0: 7049 77ba 3127 55bd c61e bcba 6e5b 86bc
000001c0: 7537 093d 4326 cf3c 07ec 8dbc d501 79bc
000001d0: 159a 00bc dd44 34bd d4f5 82bc 1188 74bc
000001e0: 7c88 2d3d 3853 46bc 8452 fabc e526 af3c
000001f0: 425a c3ba 3e13 70bd 42ad f6bc 3a88 a83c
00000200: a521 023d 7cc0 42bc 73d9 83bc 5235 c13c
00000210: bd85 853b ac0a 55bd bfcf d1bc 0cd3 c13c
00000220: a563 0f3d 722e a2bb 9165 423c ad30 323d
00000230: f2e1 063c 6a5b 34bd 4a9d 87bb f3ef 333d
00000240: 7ed7 ee3c 47d7 7f3d c2a7 bc3c a7bb 46bb
00000250: 9626 13bc 202b 7f3d d711 8bbc ae70 59bb
00000260: fada 813c 0515 623d 1145 71bb 10b8 bfbc
00000270: f5ee 2fbc 6658 383d e726 203c 51df cabc
00000280: 2f82 c43c f8d3 1c3d 8077 dfbb 6afb 2ebc
00000290: 9ed6 c3ba 054f 4bbb fab4 6d3c 58c3 36bc
000002a0: 5cec f23c e1b1 bf3d c6ba 833c 18b2 973c
000002b0: 0f6d 7f3c f30b 7e3d ee15 82bc 98eb 983c
000002c0: 9797 b93c 0276 cc3d d7fd 81bc 204d 34bc
000002d0: 6c9d 1d3c 0d50 383d d52a 0c3c 14a6 2abc
000002e0: d5c7 083d 42a6 b13d 4a4e ecbb 2360 80bd
000002f0: a89b e53a 9da2 4fbb a2a9 853c 3464 7fbd
00000300: 25b9 e53c 9284 97ba 9c27 3ebc 68f6 a839
00000310: 4e4d f0bc 7575 56bc 377a 403c 8a73 eb3a
00000320: 4679 dc3b af2a 03bb 6e18 bd3c 591b 493c
00000330: aed2 bb3d da3d 95bc 761c a1bc eedc 20bc
00000340: 35c7 05bd f07a ecb9 3b83 c23c 563b 36bc
00000350: ef4c b03e b38a b23c 3a80 a2bc 525a 0b3c
00000360: 8600 81bc 5fe2 f3bb 5d97 c93c 5d76 843c
00000370: 02c8 633d d755 15bb 9f1b ccbc afdf 85bc
00000380: 231c b03c 635c b43b 5e66 3a3d e7bb 3c3b
00000390: 4bbc b1bd 2421 41bc a61f 48bd 7651 9bbb
000003a0: 4277 e1ba ef3d eb3b fb7f 61ba 4832 3fbc
000003b0: 165b b4be 5358 3e3c b12d 4139 c4e2 403c
000003c0: e047 98bc 0196 5fbc f98a 1d3a e8d5 a339
000003d0: f672 253d cd8c d73c 70d8 be3a 4064 8b39
000003e0: eeeb f13a 37c2 9bbc e8ee 3dbc bfcf 163b
000003f0: 79e0 603d a8db b83c 77e1 273c 976b 053b
0.019205833 0.016872859 0.005021455 0.008058241 -0.004851817 -0.0056748134 0.009271367 0.007782563
0.01876884 0.017902425 0.0028687767 0.009651389 0.0078463685 -0.018827084 0.0029761265 0.009732296
0.046231184 0.01809403 0.019232702 0.0030578664 -0.0055997707 -0.023771439 -0.020880135 0.00386085
0.039264187 0.015223594 -0.004903393 0.0033216039 0.0005879742 -0.0056742844 0.0045429026 0.0029646682
0.03466848 0.01288493 -0.02642926 -0.0074827345 -0.009552649 -0.018746166 -0.02411709 -0.007448101
0.016133497 0.010713315 0.023548495 -0.016529642 -0.0013205401 -0.023683272 0.015990037 -0.015977776
0.043179117 0.04161618 0.0065206657 -0.006675358 -0.011962782 0.022639705 0.014896532 -0.0057294075
0.029195683 0.04596515 -0.00038437106 0.033076443 -0.018328056 -0.0004767835 0.001298813 0.03349837
0.052629605 0.047635835 0.031299774 -0.006536222 -0.055677313 -0.06429394 0.023906473 -0.006644486
0.039767094 0.020784045 -0.011957507 -0.0047569904 0.01712979 0.02256841 -0.016803535 -0.0043319697
0.04534415 0.026370903 -0.028042724 0.0024703436 0.013842779 -0.0004449931 0.02792818 0.0027151906
0.034987636 0.023490256 -0.035208885 0.0059537883 0.05042988 -0.06420893 0.025405303 0.00615655
0.025455521 0.029580347 -0.020792868 0.01817503 0.0027158624 -0.058583073 0.025808819 0.01859769
0.03708031 0.029543703 0.0135426335 -0.015944164 -0.0009433245 -0.05203933 -0.0014352433 -0.016401019
0.033500154 0.0252868 -0.01732446 -0.015198191 -0.007849236 -0.044010986 -0.01598636 -0.014925019
0.04236649 -0.012104802 -0.030556925 0.021380851 -0.0014904218 -0.0586121 -0.030111913 0.02057277
0.031770367 -0.011886712 -0.016094899 0.023584995 0.0040747807 -0.05201213 -0.025611756 0.023660205
0.035007138 -0.0049493844 0.011865036 0.043503452 0.0082325805 -0.04403249 -0.0041386234 0.043930005
0.029155489 0.062461164 0.023029212 -0.0030324252 -0.008981368 0.062296987 -0.01697628 -0.0033178735
0.015851486 0.055195827 -0.0036814848 -0.023403198 -0.010738124 0.04500618 0.0097749 -0.024764689
0.023987858 0.038288087 -0.0068196654 -0.010680059 -0.001494128 -0.003102244 0.01450848 -0.011154972
0.02965372 0.093600996 0.016080271 0.018517539 0.015589966 0.062023114 -0.015879598 0.018667027
0.022655291 0.09983446 -0.01586811 -0.011004716 0.009620052 0.044998217 0.008555134 -0.010415573
0.0333937 0.08674289 -0.007211481 -0.062683366 0.0017517703 -0.0031682618 0.016316239 -0.06235142
0.028042385 -0.0011559895 -0.011606123 0.00032227044 -0.029333737 -0.013089527 0.011747888 0.001796351
0.006728324 -0.0020014455 0.023082938 0.012274587 0.09171043 -0.01821797 -0.019666892 -0.009818299
-0.03266068 -0.00045105023 0.023744216 -0.011122545 0.34433696 0.021794653 -0.019836534 0.008505421
-0.01574732 -0.007442757 0.024608308 0.016169721 0.055610664 -0.002278676 -0.024915515 -0.016342012
0.021497792 0.0055041774 0.04550778 0.0028798522 -0.08678492 -0.0117876865 -0.048858307 -0.0047399355
-0.0017201679 0.007179014 -0.00086021394 -0.011669703 -0.35225743 0.011617738 0.00018422936 0.011772815
-0.01858896 -0.013646604 0.0006009783 0.00031249155 0.04039284 0.026312256 0.0014560353 0.00026586838
0.0018457153 -0.019013507 -0.011592604 0.002301201 0.054901574 0.022565678 0.010246626 0.0020358318

layers.0.bias f4 [256]
00000000: 805a 1cbc 2446 1bbc 56be d0bb 0a61 ab3c
00000010: 244e 05be 03e8 f4bc 51cd 8dbc 2dab 1c3d
00000020: 0083 07bc a9ae 91bb 7664 9dbb 4ffa 75bb
00000030: 4923 0ebd 978f 98bc 91b6 41bc 5c82 a8bd
00000040: 9c21 e1bb b4df 03bd c53b 3bb9 ca22 30bc
00000050: 2308 53bc 6ec3 9cbb c4a3 2fbb 75d1 52bd
00000060: cec7 7ebc 1d53 15be b3d8 cc3d 532f 8dbd
00000070: 7040 2d3c a542 8eba 6504 a93d 3d1d 953b
00000080: 4858 71bc 2cce 34bd 0ce1 c5bb 7d77 b03c
00000090: a502 dfbb 904f f63a 8149 503b 2548 0ebc
000000a0: c966 40bb 8672 09bb 125e 31bd 160f ca3c
000000b0: 9158 7ebb c3ca 29bc 2cd4 07bb 910a 03bc
000000c0: 244c 783c ce1d f5bc 2115 ddbb 7757 89bc
000000d0: e454 75bd c12c d0bd fa39 783b 15de e6bb
000000e0: 4a10 28bd e2da c8bd 391e b2bb f3ad 9fbb
000000f0: 8fb5 58bd 704c 82bb bde4 963b c561 7a3d
00000100: 1d77 45bd becc 0abc cdef 93bb bb0b 58bb
00000110: 7707 5dba 94e4 c9bd a1b0 b53d ee4c 87bc
00000120: f18f 23bc 9248 6aba 2a03 6dbc e78f bebd
00000130: 2457 a8bc ae5e 073d ed2f bf3d 1fd7 a3bc
00000140: e1ba 87bb 198d bdbb a56e 7fbd 9e22 4dba
00000150: 23a4 7b3b dc85 e3ba f730 13bd dad8 e9ba
00000160: f8fb 6ebc acb3 86bb 13a9 533c e971 593b
00000170: 0109 183d b8f9 0cbc db47 6fbc a866 c7bb
00000180: 402f 29bd d593 83bc 4522 b2bb 797d 0ebc
00000190: 39dd a03a 9b0a 87bc 2ffa d53b 21eb 123c
000001a0: e52b a4bc 6565 62bc 34c5 58bc 5f0e 3ebc
000001b0: 03e6 a6bc 52af 96bb eb21 bbba e895 cdbb
000001c0: e31f 7d3c a865 16bc 7f0a 9fbc c211 27bb
000001d0: 840f 24bd 1eb6 ab3d 3d14 9abc caaa cdbc
000001e0: 2d68 353c 7f71 0fbc 51e8 89bd 1bce a23b
000001f0: 6fbb 273a c620 6ebd f40e 48bc 0454 a9bc
00000200: 47ee 93ba 8f28 febc 5bae aabc 23d5 da3d
00000210: 5a5c 22bb 80d7 debb ba8d 6dbc 35ce 53bc
00000220: b2c3 493d 25b3 01bd 1732 25bc 0bee 04bc
00000230: a9cd bcbd 2d76 aa3b cae5 4038 340b 25bd
00000240: be27 74bc aac3 f038 763f 1cbc 7364 e5bc
00000250: 997c 9fbb fb08 5cbc df16 a03c 7ba4 113c
00000260: eaf9 a63c 5331 c73d afd6 b5bc 4d25 e8bc
00000270: f78c 2d3b af79 2dbb 79b2 c4bd 440f 4ebc
00000280: 311b a53b 0c3f b1bd 8d66 70bc 34f0 433b
00000290: 73d4 91bc c849 763b 4b21 0cbc 0ba2 eebb
000002a0: 4a8a c0bc f8ae 753b 77bc 9d3c 771c 513d
000002b0: c33f a9bd d77e ff3a 8f51 bebd d93d e3bd
000002c0: a679 c7bc 7710 f6ba 620b a137 e528 113a
000002d0: c5f9 69b9 757c 4bbc 3bf0 99bb 58f6 8abc
000002e0: fab6 b2bc 9034 53bb 7f14 79b9 39b3 1e3c
000002f0: f781 153c b1b0 973c dbe4 183b f9b8 d23c
00000300: 854c eaba 272f d23c 6bdb 22bc e3c4 93bb
00000310: 9d59 57bd fed6 75bc 5ebe 3abb 0d89 2a3d
00000320: e072 81bb bd12 c5b9 6f70 50bc 9470 2b3b
00000330: 65a8 6abc eb3d e2ba 865d 17bd 54d3 0fbd
00000340: 9798 49ba 1caa c539 75c5 7cbc 4f1e b4ba
00000350: 2c43 93bb c4d7 57bc bea1 15bc f72e d5bb
00000360: 455b 433d 688b 3dbc ca47 cbbb 3edc b9bd
00000370: 90d0 29bd 6fd5 61bc 2540 8c3d 39bb 84bb
00000380: d78f b3bd e232 56bb 0f1b bdbd 8f06 50bb
00000390: c320 20bb b14c e6bb d52b 143c 1aa9 abbc
000003a0: 9a06 cfbc f9e6 6cbc fa65 10bc 199a 8dbb
000003b0: f560 b23c 1fa2 00bc d207 58bb c9a0 fe3c
000003c0: eed9 04bd e05b 92bb b568 f6bb 3473 95bd
000003d0: 891b 29bc f605 cb3b 00e9 1fbe 575d 32bc
000003e0: 181f efbc b63d 80bb a883 8dbc e1f0 13be
000003f0: 90c7 0bbc 69ba 9cbd e720 d4bd 7723 bd3c
-0.009543061 -0.009477172 -0.006370346 0.020920295 -0.1301809 -0.029895788 -0.017309817 0.038249183
-0.008270979 -0.00444587 -0.0048032356 -0.0037533229 -0.03470162 -0.018623156 -0.011823312 -0.08227989
-0.0068704616 -0.03219576 -0.00017855976 -0.010750482 -0.012880358 -0.004784039 -0.0026800493 -0.051469285
-0.015550567 -0.14582486 0.100022696 -0.06893792 0.010574445 -0.0010853602 0.08252791 0.0045506046
-0.014730521 -0.044141933 -0.0060387906 0.021541351 -0.006805735 0.0018792022 0.0031782093 -0.008684193
-0.002935814 -0.0020972802 -0.043302603 0.024665397 -0.0038810114 -0.010363284 -0.002072583 -0.007998125
0.015154872 -0.029921439 -0.0067469035 -0.01676534 -0.05989541 -0.10164786 0.0037876354 -0.007045517
-0.04103116 -0.098073736 -0.0054357317 -0.0048730313 -0.052907523 -0.003976397 0.0046049044 0.061128397
-0.0482093 -0.008471666 -0.0045146705 -0.0032965976 -0.00084315933 -0.09858051 0.0887158 -0.016516175
-0.009983049 -0.00089372054 -0.014466086 -0.09304791 -0.020549364 0.033049278 0.09335313 -0.020000039
-0.0041421507 -0.0057846424 -0.06236138 -0.0007825288 0.0038397394 -0.0017358619 -0.03593537 -0.0017841116
-0.014586441 -0.004110774 0.012918728 0.0033179468 0.03711796 -0.008604459 -0.014604534 -0.0060852356
-0.041304827 -0.016061703 -0.005436214 -0.008696907 0.0012272961 -0.01648455 0.0065300683 0.008967192
-0.020040462 -0.01381812 -0.013230611 -0.011600106 -0.02037335 -0.0045985365 -0.0014277076 -0.0062739737
0.015449497 -0.00917951 -0.019414185 -0.0025492762 -0.04005386 0.083843455 -0.018808478 -0.025105853
0.011072201 -0.008755087 -0.06733764 0.0049684173 0.0006398474 -0.058136724 -0.012210596 -0.020669945
-0.0011286222 -0.0310252 -0.020835092 0.10685184 -0.0024774284 -0.006800592 -0.014499122 -0.012927582
0.049258895 -0.031664986 -0.010082743 -0.0081133945 -0.09218914 0.005202076 4.5990375e-05 -0.040293887
-0.014902053 0.00011480537 -0.009536615 -0.028002 -0.004867148 -0.0134298755 0.019542156 0.008889313
0.02038284 0.09726205 -0.022197096 -0.028338099 0.0026481727 -0.0026470234 -0.096043535 -0.012576882
0.005038642 -0.08654603 -0.0146728875 0.002989781 -0.017801499 0.0037580598 -0.00855286 -0.0072825006
-0.023503441 0.0037488323 0.019254906 0.051052537 -0.08264115 0.0019492757 -0.092929 -0.11095781
-0.024349999 -0.0018773217 1.9197996e-05 0.0005537405 -0.00022313658 -0.01241981 -0.004697827 -0.016963169
-0.021815766 -0.0032227375 -0.00023754126 0.009686285 0.009125224 0.01851687 0.0023329768 0.025722967
-0.0017875588 0.02565725 -0.009940009 -0.0045095547 -0.052575696 -0.015004871 -0.0028494815 0.041634608
-0.0039504617 -0.0003758873 -0.012722119 0.002615963 -0.014322375 -0.0017260885 -0.036954425 -0.035113648
-0.0007690279 0.0003770151 -0.015427937 -0.0013741943 -0.0044940915 -0.013174001 -0.009132801 -0.006505843
0.047694463 -0.011568882 -0.0062036263 -0.09075211 -0.041458666 -0.013783797 0.06848172 -0.004050639
-0.0876767 -0.0032684137 -0.09233677 -0.003174219 -0.002443359 -0.0070281853 0.0090436535 -0.020954657
-0.025271703 -0.014459365 -0.008813376 -0.0043213484 0.021774748 -0.007851153 -0.0032963646 0.031082528
-0.032434396 -0.0044665188 -0.0075198063 -0.07297364 -0.010321506 0.006195779 -0.15616226 -0.010886512
-0.029189631 -0.0039136065 -0.017274693 -0.14447357 -0.008531466 -0.076527424 -0.10357838 0.0230882

layers.2.weight f4 [128, 260]
00000000: 2858 3b3b 0736 f53a 4091 933a 28c0 883c
00000010: fc44 dcbb fc99 463b 5803 7739 2dcd 19bb
00000020: 91b4 1bbb bd48 be3a bf35 c73b b056 52ba
00000030: a58f 35bb 3ba2 06bb b965 143b d87e 373a
00000040: 3800 17bb 2c4c 54bc f642 083b 58a1 ecbb
00000050: ee43 cebb a1a3 85bb 6d1c 23bb 46ca e4ba
00000060: 6949 c0bb e574 9bbb 7394 8abb ea8f cdbb
00000070: a2c0 3b3c d4f1 28bc 137c c53b f6c5 faba
00000080: daec d63b 7217 eabb e29b df3a f56d 65bb
00000090: a52c 923c c096 433b eaf8 bfb9 31a8 31bb
000000a0: 7c2b bab9 7a87 0fbc acfc c63b e7f6 bfba
000000b0: 90dd a0bb 1f20 3bbb 1831 f73a 83f0 f9b8
000000c0: f8ce 4dbb 76bc 583b eeab efb9 d4d6 27bc
000000d0: 6472 20bc caec 163b 3def 803b 47a8 683a
000000e0: 17ea 28bb d32b b5bb f99f 41bb 7246 223b
000000f0: afcb 0bbc 8b58 123a 1c56 943a 6fe2 c73b
00000100: 53c9 793a b233 6bba 66d8 00bb 4ce4 a1ba
00000110: b18a 4fbb 2758 74bb abc8 ffba 3567 ad3b
00000120: 36f1 17bb ecce 0dba bc92 e83a 6b48 3e3b
00000130: d589 43bb 7118 95bb fa37 b13b e9ec cdbb
00000140: d01b 40bb 77fe 203a c743 60bc f2b4 ea3a
00000150: 882a c7ba 5727 bbbb a74e f1bb b091 2bbb
00000160: 3b3a fe3a 7149 d8ba a16d 1ebb a50c 87bb
00000170: fe9d c23b 5573 c5bb 3510 e5bb bf1d 07bc
00000180: 2c49 a9bb 0ea3 ffbb 7bdd 6f39 3f85 fbba
00000190: 455b b2bb 1ddc 983b 8f87 2f3b 423c d5bb
000001a0: 89cc 08bc 8d3d b53a e797 88bb 3a7a 92bb
000001b0: bbff 5cbb 0140 4d3a 4366 d0bb 14f5 e7bb
000001c0: 73cf 03bc 3d63 953a b9c6 0cba b057 75bb
000001d0: 3168 81bb 57af 663a 766c 86bb a620 b73b
000001e0: d540 86b8 ce29 6ebb 1640 073c 21c6 b2bb
000001f0: 84ed b5bb 812f 12bb 9669 883b 462c 97ba
00000200: 87f5 863b e593 98bb 4a38 8fbb e74e 3d3b
00000210: db5a a0bb 05e6 6a3b 22bc 94bb bcff de3a
00000220: 3a77 eb3a 4ec7 11bb 66ee e13a 0be3 80bb
00000230: 2160 a7bb afe1 3bbc ef6b b5bb d1c1 13bc
00000240: 613b 0b3b 7a95 10bc 5dc2 913b 14c6 5a39
00000250: 0c3b 85bb 229c 713b a752 023b c686 eabb
00000260: 4330 d8b8 728a 143c df04 59bb 22cd 85ba
00000270: 12be 683b 0f09 57b8 d20f ffbb 17cf a8ba
00000280: 383b 1dba 4887 15bc 8947 e839 f651 163a
00000290: 4114 babb 3602 c9bb 174e 4bbb 5819 46bb
000002a0: 12f0 113c 1e19 673a e08f 69b9 52f9 abbb
000002b0: 052a e0bb ff8a 8f3b b4f4 e6bb 1b16 b5bb
000002c0: a3c3 f1bb 41a1 babb 4347 a837 c31f 143b
000002d0: fad8 243b f1bd b23b 78a2 92bb e291 543b
000002e0: fb71 c1bb 7c21 e2bb b08a 27bb f938 f4bb
000002f0: 3022 e9ba 5662 02bb e7a8 c23b 3c2c 08bc
00000300: c8ab 80bb 75a2 75bb 1539 c6ba 264d eabb
00000310: 925d 08ba 30a3 dc3b 4bf7 edbb df03 a43a
00000320: fda7 50bb edeb c538 c68e 24bb efe9 14bb
00000330: 6db2 79bb 6559 92bb 0f0d 9a3a 12a7 5dbb
00000340: 96b1 433c 7943 413b ab4f 15ba 3fa5 2bbb
00000350: c38d 2a38 65a9 aebb 0bde a9bb eb85 5bbb
00000360: df28 d6bb db2d 9ebb 79d1 eaba 96b2 523b
00000370: c3aa 843b e781 24ba 9e1d 16bb 0a52 74bb
00000380: d488 8ebb 9f25 533b 05b6 4239 2740 0c3a
00000390: 2956 963b 67e6 21bc a47e 6439 5288 2ebc
000003a0: a055 43bb c5b4 1ebb 4e6a a7ba 9dfa bf3b
000003b0: 826e 12bc 5e6e 8db8 7b99 2639 5f7f 8fbb
000003c0: 9c64 02bc 7477 fcbb 88e9 b6bb b01b a4bb
000003d0: e86b 8cbb e5b7 a0bb ebce 3cbb 3915 473b
000003e0: 6cfa 84bb c5ba 8ebb 2223 a2bb c7cc b6bb
000003f0: c29f 303b b627 74bc b64d 45bc 4bbd 09bb
0.002858648 0.0018708118 0.0011258498 0.01669319 -0.0067220908 0.0030304184 0.00023557001 -0.0023468242
-0.002375875 0.0014517527 0.006079405 -0.00080237817 -0.0027704027 -0.0020543474 0.002264364 0.0006999797
-0.0023040902 -0.012957614 0.0020791865 -0.007221382 -0.006294719 -0.004078344 -0.002488877 -0.0017455302
-0.005868126 -0.0047441595 -0.0042291223 -0.0062732594 0.011459501 -0.010311563 0.0060267537 -0.0019132483
0.0065589966 -0.007143908 0.0017060007 -0.0035008166 0.017843554 0.0029844493 -0.00036615814 -0.0027108307
-0.00035509083 -0.0087603275 0.0060726013 -0.0014645726 -0.004909225 -0.0028553081 0.0018859236 -0.00011918044
-0.003140388 0.0033071316 -0.0004571373 -0.01024409 -0.009792898 0.002302932 0.0039347694 0.0008875173
-0.0025774294 -0.005528906 -0.0029544814 0.0024761227 -0.008532449 0.0005582652 0.0011317166 0.006099991
0.0009528596 -0.0008972242 -0.0019660234 -0.0012351363 -0.003166836 -0.0037283988 -0.001951476 0.0052918443
-0.0023184544 -0.0005409557 0.0017743926 0.0029034864 -0.0029836793 -0.004550033 0.0054082843 -0.0062843454
-0.0029313453 0.0006141434 -0.013688034 0.0017906709 -0.001519517 -0.005711477 -0.0073641124 -0.0026179366
0.0019396016 -0.001650138 -0.002417423 -0.0041213804 0.0059392443 -0.0060257115 -0.0069904574 -0.008246838
-0.0051661935 -0.00780142 0.00022875324 -0.0019189491 -0.005443009 0.0046649114 0.002678368 -0.0065074274
-0.008349546 0.0013827548 -0.004168499 -0.004470137 -0.0033721763 0.0007829667 -0.006359847 -0.007078776
-0.008045065 0.0011397373 -0.0005370188 -0.00374363 -0.003949188 0.00087999314 -0.004102285 0.005588609
-6.401694e-05 -0.0036340836 0.008255025 -0.0054557477 -0.0055519957 -0.0022306147 0.0041629774 -0.001153358
0.0041186246 -0.0046563023 -0.004370724 0.002888614 -0.0048936433 0.0035842669 -0.0045390287 0.0017013471
0.001796461 -0.002224404 0.0017237186 -0.0039333156 -0.005107895 -0.011467381 -0.0055365483 -0.009018377
0.002124511 -0.0088247005 0.0044482187 0.0002086389 -0.004065877 0.0036866744 0.001988569 -0.0071571795
-0.00010308672 0.009066211 -0.0033114476 -0.0010208229 0.0035513681 -5.126843e-05 -0.0077838684 -0.00128791
-0.0005997899 -0.009126492 0.00044303786 0.0005734259 -0.005678684 -0.006134297 -0.0031021887 -0.0030227508
0.008907335 0.00088156934 -0.00022274209 -0.005248227 -0.0068409466 0.0043805833 -0.007048214 -0.005526317
-0.007378058 -0.0056954925 2.0060344e-05 0.002260194 0.0025153742 0.0054547717 -0.004474934 0.0032435586
-0.00590348 -0.0069009643 -0.0025564842 -0.0074530807 -0.0017786678 -0.0019895039 0.005940545 -0.008311328
-0.003926728 -0.0037480865 -0.0015123213 -0.00715031 -0.00052019313 0.0067333207 -0.0072621456 0.0012513361
-0.003183841 9.4376366e-05 -0.0025109514 -0.0022722443 -0.0038100735 -0.004466223 0.0011753159 -0.0033821505
0.011944195 0.002948968 -0.00056957704 -0.0026191024 4.0663184e-05 -0.005330252 -0.0051839403 -0.003349657
-0.006535634 -0.0048272437 -0.0017915211 0.0032149903 0.0040486767 -0.00062754605 -0.0022905837 -0.0037280344
-0.0043498073 0.003221847 0.0001856909 0.00053501356 0.004587908 -0.009881592 0.00021790952 -0.0106526185
-0.0029805675 -0.0024216634 -0.001277277 0.005858733 -0.00893748 -6.7439614e-05 0.0001588817 -0.0043791975
-0.007958557 -0.0077046696 -0.0055820383 -0.0050081834 -0.0042853244 -0.0049047344 -0.0028809856 0.003037764
-0.004058173 -0.0043557608 -0.004948036 -0.0055786106 0.0026950692 -0.014902046 -0.0120424535 -0.0021017368
